ControlSynth_Neural_ODE/preliminary_experiment_example/cs_neural_ode_noised1.pth (torch, 5723 bytes, 8 tensors)

func.net.0.weight f4 [96, 2]
000000 ff 8d 91 be 3b 36 d0 3c 0a 7a 98 3e 0d 50 04 3f
       -0.28428647 0.025416484 0.29780608 0.5168465
000010 cd 60 78 bd d9 02 4a bd 9b b7 01 be f2 c0 04 3e
       -0.06063919 -0.049319122 -0.12667696 0.12964228
000020 8e e4 02 3f 35 bc 5f be 00 74 5d 3c 20 c4 da bd
       0.51129997 -0.21849139 0.013516426 -0.10681939
000030 e8 65 bf bd 8e fa 36 bf 97 1b 87 3e db 0c 3b 3f
       -0.09345609 -0.71476066 0.26388237 0.7306649
000040 95 96 98 be a9 ea 43 bf b3 e6 bb bd 3c 3e 6c bd
       -0.29802385 -0.7652994 -0.09174862 -0.05767654
000050 23 52 e9 bd 25 8d 02 3f 5a c3 54 3e 00 a8 49 3f
       -0.113926195 0.5099662 0.20777646 0.7877197
000060 58 25 bf bd 04 d5 84 bf e4 d7 ef be ee 9b 13 bf
       -0.09333295 -1.0377507 -0.468444 -0.57659805
000070 f0 b7 4c 3d 3d e0 e2 3e b8 12 f5 3d 95 db 36 3c
       0.049980104 0.44311705 0.11966461 0.011160751
000080 07 fa 00 3f 0f f7 49 3f 81 58 21 bd 46 0a 64 be
       0.5038151 0.78892606 -0.039391045 -0.22269544
000090 db d5 b6 bc 16 0f 36 3e b4 1f d2 bd 9e 63 5a 3d
       -0.022318771 0.17779192 -0.10259953 0.05331766
0000a0 ac 05 ca 3d 20 4d 36 be 4d 8a 19 be d6 46 ef 3d
       0.09864363 -0.17802858 -0.14994164 0.11683433
0000b0 be b3 22 bd 37 5f 11 be ea ea d5 bc 3e b2 2a be
       -0.039722197 -0.14196478 -0.026112992 -0.16669556
0000c0 ef e1 5b be e8 7e f1 3e b0 31 f6 be 57 31 3a bf
       -0.21472906 0.47167134 -0.48084784 -0.72731537
0000d0 31 fe 8b 3d 87 c0 9b bd 7b 7b c5 bd 3a 97 03 bf
       0.068355925 -0.07605081 -0.09642693 -0.5140263
0000e0 c4 76 b8 be 5b e6 f3 3e cf 15 90 3d 3f 35 50 bd
       -0.3602811 0.47636685 0.0703541 -0.05083203
0000f0 c2 b4 ba be ac 29 3f bf 60 c4 de be 31 ce 83 bf
       -0.36466032 -0.7467296 -0.43509197 -1.02973
000100 d1 c7 37 3e 77 fc 05 ba c7 2f 81 bd ff 08 a1 bd
       0.17947318 -0.00051111676 -0.06307941 -0.07863044
000110 eb cc bb bb ac b8 44 bf e8 ec 28 3f c8 3a b9 be
       -0.0057312152 -0.76844287 0.6598649 -0.3617766
000120 e6 cc ba bd f2 6d 6b 3d 9f 90 4a bf 9e 4f 07 3f
       -0.091211125 0.0574779 -0.79126924 0.5285586
000130 f9 5f 56 3f 2e 04 86 be 30 68 1a be 05 6d 78 3f
       0.8374019 -0.26175064 -0.15078807 0.9704135
000140 bb a7 84 bd 5e e9 4b be 5d b8 32 bf 0a 80 23 3e
       -0.064773045 -0.19913241 -0.69812566 0.15966812
000150 fa 9a bf bc 7b 2c af bd 02 66 96 3e 99 a2 6a bc
       -0.023389328 -0.08553406 0.293747 -0.014320993
000160 b8 d7 f1 3d dc 69 8d 3c ff 5b 6e bf bf 14 a0 3e
       0.11808723 0.017262392 -0.93109125 0.31265828
000170 ac fa 2d be ea 80 ca 3d 30 86 81 3e 1e fe 17 3f
       -0.16990155 0.0988787 0.2529769 0.5937213
000180 e5 37 40 bd 30 f8 98 3d a8 72 dc be ce bf a5 3e
       -0.046928305 0.07469213 -0.43056226 0.32372898
000190 b7 30 0d be 40 87 8a bd f9 d1 26 3f 9f ff a3 be
       -0.13788114 -0.06764078 0.6516414 -0.3203096
0001a0 e5 80 08 bf 6b 6c a9 3e eb 45 ac be 14 31 93 3d
       -0.5332168 0.3309053 -0.33647093 0.07187095
0001b0 fe fd 93 3e 73 c1 5f 3f c3 da bb 3e 04 bd da be
       0.28904718 0.87404555 0.3669034 -0.42722332
0001c0 23 95 dc be 2f 61 1e bf 8f 62 bc bd 9b 57 65 3d
       -0.43082532 -0.6186704 -0.09198486 0.05599175
0001d0 d4 57 25 3e 7d 83 22 3e 7f a3 0d 3f 17 44 e9 3e
       0.16146785 0.15870471 0.553276 0.4555976
0001e0 0d 26 4f bf af 5f ab 3e b3 44 18 bc a4 a4 85 bd
       -0.80917436 0.33471438 -0.009293723 -0.06525543
0001f0 ef fb aa 3b df 78 32 3e 92 ac 0d bf 70 48 23 3e
       0.005218021 0.17428921 -0.55341446 0.15945601
000200 4f 92 b3 be b8 f8 5d bf c4 93 96 bb df 44 d1 bd
       -0.35072562 -0.8670764 -0.0045952518 -0.10218214
000210 16 a7 c4 bd b9 74 b0 3d db 31 d3 3d 58 30 70 3e
       -0.096021816 0.08616013 0.103122436 0.23455942
000220 9a 50 88 3e 59 a5 e1 be 8a a4 01 bd fd a0 3b be
       0.26623994 -0.44071463 -0.031651057 -0.18323131
000230 7d fa 0b be 3c 5d 95 3c b5 0c ec 3d bd 8c 1c be
       -0.13669772 0.018232934 0.11525861 -0.15288062
000240 e6 40 c0 3e 82 89 9b be fe de 85 3e 95 52 12 3f
       0.37549514 -0.30378348 0.26146692 0.5715726
000250 4f 47 b8 3e e4 a7 18 be e5 7d fe 3e c2 e3 41 3f
       0.35991904 -0.14907795 0.49705425 0.75738156
000260 88 c9 38 3f b5 93 f4 be d8 2a f5 3a 08 09 b6 bd
       0.7218251 -0.47768942 0.0018704785 -0.08888441
000270 70 c9 02 3d b7 38 45 3e 08 4a d9 bd e5 7f 87 3d
       0.031930387 0.19259916 -0.106098235 0.06616191
000280 29 79 14 bf ba e8 1b 3f e0 8a cc 3c 0b 3b aa 3d
       -0.57997376 0.6090199 0.024968565 0.08312043
000290 a4 43 a5 bd 19 06 56 be 2d ce da 3d 4f de c1 3c
       -0.08069542 -0.20900764 0.10683856 0.023665575
0002a0 ed 09 02 bd 4f a5 09 3e 65 15 90 be f4 04 81 3c
       -0.031747747 0.13441966 -0.28141323 0.015749432
0002b0 e3 29 25 3e ae 97 e4 bd b8 3f 21 be ac ee 6a 3f
       0.1612926 -0.11161743 -0.15746963 0.91770434
0002c0 0a a7 f4 bd 6b 9f 40 bd df 97 b7 be 7c db 4f bf
       -0.11945923 -0.047027033 -0.35858056 -0.8119428
0002d0 a9 15 3c 3f 26 31 91 be d1 33 ab bd 9b 35 21 be
       0.7347055 -0.2835781 -0.083594926 -0.15743105
0002e0 c3 ed 17 3d 2d 55 a1 3d ee 8f 58 3f 43 69 f8 3d
       0.03709198 0.07877574 0.8459462 0.12129452
0002f0 d5 78 83 be 5a 06 3b bf 71 14 91 be 38 c6 56 3e
       -0.25678125 -0.73056567 -0.28335908 0.20974052

func.net.0.bias f4 [96]
000000 8f f9 f7 bf be 8f 38 3f 55 d2 66 3f 92 10 a1 bf
       -1.9373034 0.72094333 0.9016469 -1.2583182
000010 46 d7 79 bf f3 9e 83 bf a8 fc 0d c0 eb 3b 70 3e
       -0.97594106 -1.0282882 -2.218546 0.23460357
000020 75 ef f0 be 87 94 cb 3e aa e1 f0 bd b4 49 cb 3f
       -0.4705769 0.39761755 -0.11761792 1.5881867
000030 2e 8f 78 3f c9 ab 9e bf 25 c8 a9 3f 67 5f 13 be
       0.97093475 -1.2396175 1.3264204 -0.14391862
000040 d4 87 35 bf b8 10 f6 3f 52 9e 0c c0 ae 8a b2 3f
       -0.7091038 1.9223852 -2.197163 1.3948572
000050 c9 d6 66 3f 5b cd a6 bf 5b d0 ba bf 0d c7 e2 bf
       0.90171486 -1.303142 -1.4594835 -1.7716995
000060 e7 f5 81 3f 5a b9 5c be 74 e3 8a bf 95 89 80 bf
       1.0153168 -0.21555081 -1.0850663 -1.0041987
000070 39 aa 9e bf 2b 31 15 bf 07 80 91 bd 73 3f 02 bf
       -1.2395698 -0.5827815 -0.071044974 -0.50878066
000080 c8 41 8d 3e 87 7f 75 3f 76 83 25 bf 1a ac 35 be
       0.2758925 0.95897716 -0.6465372 -0.17741433
000090 71 c7 9b 3f 5e 8a 98 3e 0f e7 80 be 80 70 ec 3c
       1.217024 0.29793066 -0.25176284 0.028862238
0000a0 4c 30 0d c0 57 56 d0 be d8 5f 6c be d6 8f 01 40
       -2.2060728 -0.40690872 -0.23083436 2.024404
0000b0 f4 5a b2 bf bf 68 e2 be e3 67 bf bf f4 cf 4b 3e
       -1.3934007 -0.4422054 -1.4953579 0.19903547
0000c0 9c 1f 82 bf 43 53 3c bf 45 13 e3 be fd 00 49 be
       -1.0165896 -0.7356455 -0.4435064 -0.19629283
0000d0 8a 7b 5b 3e cb db 0e bf a0 45 d2 3e c4 2d d0 3f
       0.21433845 -0.5580413 0.41068745 1.6263967
0000e0 10 3a 0c 3f c3 d0 9b 3f 24 ca fd 3f de 68 0a 3d
       0.54776096 1.2173084 1.9827313 0.033791415
0000f0 af 46 c4 3e a9 4b 98 3f 8e 4a e7 bf a8 69 a9 bf
       0.38335177 1.189809 -1.8069627 -1.3235369
000100 00 3b a6 be 96 8f 4c bf a1 7a d7 3f e2 4a 8b bf
       -0.32466888 -0.79906595 1.6834298 -1.0882227
000110 3a 25 20 bf cf 87 00 c0 11 70 de 3f 82 62 16 3f
       -0.62556803 -2.008289 1.737795 0.5874406
000120 48 7b 44 3f 32 0d 89 3e ef 18 00 3f d3 2d f1 be
       0.7675061 0.2676788 0.50038046 -0.47105274
000130 ca 72 c0 be 7f 1f 04 bf de 91 08 40 84 9a c9 3f
       -0.37587577 -0.5161056 2.133903 1.575028
000140 8f 02 09 be 69 a3 6a be cb 1d e8 3f b2 33 8e bf
       -0.13379882 -0.22913899 1.8134092 -1.1109526
000150 db b2 ce 3f 0b f4 7c bf 43 bd 4e 3f b1 52 be be
       1.6148332 -0.9880988 0.8075754 -0.37172464
000160 8d 8e b7 3f a9 4d 14 3d 61 e7 e5 bc 3c 79 d5 bf
       1.4340378 0.036206875 -0.028064432 -1.6677623
000170 97 e1 0d be 3e 39 3a 3e bb 75 44 bf 5c 5b 25 3f
       -0.13855587 0.18185899 -0.7674214 0.6459253

func.net.2.weight f4 [2, 96]
000000 fe d1 1a bd d4 41 d8 3d 6f 40 65 3e 20 ad db bd
       -0.03779792 0.10559431 0.2238786 -0.1072638
000010 c5 6f 9c 3d d6 16 b9 3e 9e a0 fb bc e4 b8 24 be
       0.07638506 0.36150235 -0.030716237 -0.16086155
000020 a4 6f 1d 3c 65 8a 55 3e 78 16 7f be 35 5f 9d 3c
       0.009609137 0.20853575 -0.24910915 0.019210437
000030 26 23 05 3e d5 1f cc bd 4e f1 6f bd 94 5d b3 3c
       0.1300169 -0.09967009 -0.058579735 0.021895207
000040 77 01 d7 bd 72 ee 35 3f d6 7a 76 bf 9f d4 49 be
       -0.10498326 0.71066964 -0.9628118 -0.19710015
000050 c9 a3 11 3e 4e da 05 be a1 1f 58 3e 1e f6 b1 3e
       0.14222635 -0.13071558 0.21105815 0.34758085
000060 51 8e 06 3d 9e c4 27 3d f2 57 d0 3e ca df 6c bc
       0.032850567 0.040958993 0.40692097 -0.014457652
000070 e1 b6 42 bd 8b b4 7d 3e bf 2a 16 3d 81 87 e6 3c
       -0.04753769 0.24775903 0.03666186 0.028140785
000080 c9 67 5f bd 34 f4 3b 3e 24 9e e5 3d 9e 9b be bc
       -0.054542337 0.18354875 0.112118036 -0.023267563
000090 ba 54 81 be ab 92 9c 3d 5d bb fc 3c 4c fc 07 be
       -0.25259954 0.07645162 0.03085106 -0.13279837
0000a0 86 2c 81 3e 0f 3d ee bc af 00 9a 3e 46 9c 19 3d
       0.2522928 -0.02908185 0.30078647 0.03750255
0000b0 65 5e bc bd 0f 93 0d bc 47 22 fb bd b2 52 be bc
       -0.09197692 -0.0086410185 -0.12262397 -0.023232792
0000c0 47 f2 0c bf d4 e2 36 bc e6 71 ff 3d fa f8 1a bd
       -0.55057186 -0.0111624785 0.12472896 -0.0378351
0000d0 34 1b b4 3d d3 42 80 3b ae 7e 8a 3d 0e ee 5d 3c
       0.08794251 0.003914216 0.067624435 0.013545526
0000e0 c0 49 da 3c 8e 08 74 be 08 65 34 be 19 0e 8b 3d
       0.026646495 -0.23831388 -0.17616665 0.06789798
0000f0 d6 b3 99 bd f3 ac 17 3f da 0b 90 bf d4 f4 2b 3e
       -0.07505004 0.59248275 -1.1253617 0.16792613
000100 33 8b 82 3d 31 9c 2f 3f 0f 1a 8f be 84 a7 2b be
       0.063742064 0.68597704 -0.2794957 -0.16763121
000110 4f 78 fa 3d b0 90 01 3f 09 9d 58 bd b5 c8 28 3d
       0.12229978 0.506114 -0.052884135 0.041207034
000120 63 e9 a1 3c 0e 28 50 bb 0d e3 87 bc a7 76 d1 bd
       0.019764608 -0.0031762156 -0.016587758 -0.10227709
000130 45 47 21 bc e1 99 05 3f 30 4d 23 bf 0a 35 5c be
       -0.009843652 0.52187926 -0.63789654 -0.21504608
000140 b2 c8 78 be 56 00 98 be ec c6 13 3f 4d 35 14 be
       -0.24295309 -0.29687756 0.57725406 -0.14473458
000150 53 f3 c6 be 64 05 c3 3d de 24 62 3d b4 d8 75 be
       -0.38857517 0.095225126 0.05521094 -0.24008447
000160 bb cf 3f 3e f5 f2 a0 3d bd 0e 52 3d 2a 7c 6c 3e
       0.18731587 0.078588404 0.051283587 0.2309424
000170 88 da 8f be eb d2 0b 3e f9 75 ea 3b 5a c2 b0 bd
       -0.28096414 0.13654678 0.0071551767 -0.086308196
000180 b6 26 d3 be f0 00 ac 3d c5 78 96 be 0a 97 9e be
       -0.41240472 0.08398616 -0.29389015 -0.3097461
000190 03 a2 90 bd eb 36 fe 3d ad 34 f9 bd d9 3a 69 3d
       -0.07062151 0.124128185 -0.1216825 0.056940887
0001a0 9e dd ca 3d 5e 67 f9 be 9c 10 20 3d 91 f7 14 3e
       0.099055514 -0.48711675 0.03907834 0.14547564
0001b0 5b c7 6f be 93 e8 c1 bb a4 3d 94 bd 11 cf 4a 3f
       -0.23415892 -0.0059176176 -0.072383195 0.7922221
0001c0 15 6a 05 bd ef a6 16 be f7 8b b0 3d eb 13 22 bf
       -0.03257187 -0.14712118 0.08620446 -0.6331164
0001d0 4c 75 93 3e 25 94 e4 be 6d f3 be bd 42 21 96 3c
       0.28800428 -0.44644275 -0.093237735 0.018326405
0001e0 99 bc 9c 3d 90 ec c4 bd d7 01 0c 3f 38 33 0e be
       0.0765316 -0.09615433 0.5469031 -0.13886726
0001f0 2a 6c 1f be 82 95 cb 3e ae a3 f4 bb eb 8f 29 3e
       -0.15568605 0.39762503 -0.007465801 0.16558807
000200 68 0d e8 3e a0 15 22 be 89 84 56 3d ae 9c f3 bc
       0.45322728 -0.15828562 0.05237249 -0.029737797
000210 a3 e6 1a bf 9c 11 85 3d f7 91 9b 3b 31 13 15 3e
       -0.60508174 0.06497499 0.004747625 0.14558102
000220 eb 2e 00 be 29 58 b0 bd 45 09 8d bd c4 03 d8 3e
       -0.12517898 -0.08610565 -0.06886534 0.42190373
000230 5f 0e 08 3f 5c 83 d3 bd 79 fa bb be 79 b5 d1 3c
       0.5314693 -0.10327789 -0.36714533 0.025599228
000240 f8 d1 a1 bd fb 2e 06 be d4 2e 61 be d2 d1 93 bc
       -0.079013765 -0.13103859 -0.2199052 -0.018044386
000250 34 83 40 3d bb 0c f6 bd 7e ab db bd e4 4f 8d 3e
       0.047000125 -0.12014147 -0.10726069 0.27600014
000260 d8 4d 50 3b 49 34 19 bf 66 65 06 3f c8 9f e3 3c
       0.003178468 -0.59845406 0.5249847 0.02778615
000270 fb 26 36 3d ce 50 b4 bd 1f 0e b4 3d 99 83 2d be
       0.04447077 -0.08804475 0.08791756 -0.16944732
000280 35 9c 90 3d b2 02 c1 3d d6 aa 14 bf 43 88 fb 3d
       0.07061044 0.09424342 -0.58073175 0.12281849
000290 70 05 b3 bd 88 35 d9 bc 7a df 4b bf f6 54 07 3e
       -0.087412715 -0.026514784 -0.79637873 0.13216004
0002a0 d9 3a 21 3e a4 5c 4f 3d 1f d4 03 3e 6c d3 12 3d
       0.15745105 0.05062546 0.12873887 0.03584616
0002b0 78 0c 86 bd 22 c9 07 3e 4b fb b4 3c 19 62 09 bf
       -0.06545347 0.1326032 0.022092482 -0.5366531
0002c0 5e 29 4c bd 6d 4b 9f 3d d3 f4 8c be 73 18 51 3f
       -0.04984414 0.07778058 -0.27530536 0.8167793
0002d0 e7 32 d4 be 71 bd de be 1e ad 7f 3e a0 cc c2 3d
       -0.41445085 -0.43503907 0.24968383 0.09511685
0002e0 c1 3a 23 bf a2 a8 61 3d 21 3b 88 bb c5 33 62 be
       -0.63761526 0.05509246 -0.0041574393 -0.22090061
0002f0 ba 41 1e 3e 33 18 6b 3d 3f ae f0 bd 0d 3d e5 3c
       0.1545476 0.057396125 -0.11751985 0.027983213

func.net.2.bias f4 [2]
000000 ec a3 08 3d d1 c4 0b 3e
       0.033359453 0.13649298

g_func.net.0.weight f4 [32, 2, 1]
000000 30 a7 61 3d 6e fd 03 be ed a5 05 3f 15 4c c6 be
       0.055091083 -0.12889645 0.5220631 -0.3872992
000010 89 1f ad 3a 4f d8 d2 bd 84 f5 1e bf fb ce 42 bf
       0.0013208251 -0.10295164 -0.6209338 -0.7609708
000020 ea fa 50 be 03 e0 c1 be 1c 28 8f be 17 30 59 bf
       -0.20408216 -0.3786622 -0.2796029 -0.84839004
000030 1f 90 b7 3c 29 04 2f 3e 02 d1 09 be 69 f6 53 bd
       0.02240759 0.1709143 -0.13458636 -0.051748667
000040 43 5e 11 3f fc 86 a2 3e d6 82 38 bf 69 f6 ca 3e
       0.56784457 0.3174361 -0.7207464 0.3964112
000050 6e c2 bf bd f7 78 12 bf 06 c2 ff 3e 3e 44 64 be
       -0.093632564 -0.5721583 0.49952716 -0.22291657
000060 ce 8a 00 bc 58 cb a1 3e 43 1b a5 3d 82 53 37 3d
       -0.007845594 0.3160045 0.080618404 0.044757374
000070 05 71 19 3e 3e 37 29 3d 64 11 23 be 8e 71 02 be
       0.1498452 0.04131245 -0.15924603 -0.1273863
000080 e4 65 ad 3c 1a b0 93 3e 73 ec b5 be 9a 4a 54 bf
       0.02116675 0.28845292 -0.3553196 -0.8292633
000090 ca 2d 1c bf 3a 44 80 bd 03 8e d2 be ea 70 e7 be
       -0.6100737 -0.06263013 -0.4112397 -0.45203334
0000a0 67 6a 72 bb 2f d7 ae bd 69 ef 5f be 47 03 0e bf
       -0.003698969 -0.08537137 -0.21868671 -0.5547375
0000b0 9e 3a 74 be 4f e6 87 bd 4e ff dc 3d ce fa 71 bc
       -0.23850486 -0.06635725 0.10790883 -0.014769269
0000c0 f5 25 b0 3d 9a 3a 40 3e 03 52 46 bd 84 58 a1 3d
       0.0860099 0.18772355 -0.048418056 0.07878211
0000d0 37 dd 72 3e 0c 55 0d 3f df 92 db 3e c5 af d7 3e
       0.237172 0.55207896 0.4288549 0.4212629
0000e0 17 84 6a bd 68 25 01 be 18 b5 e2 3e 4e 15 4e 3f
       -0.057254877 -0.12611926 0.4427879 0.8050126
0000f0 cc 09 4b bf 93 c5 01 3e 9e a2 65 3e a0 df 43 3f
       -0.79311824 0.12673025 0.22425315 0.765131

g_func.net.0.bias f4 [32]
000000 b9 a0 ab 3f 19 79 7e bd ea 52 5a bf ef bc 8c bd
       1.3408424 -0.062127206 -0.85282767 -0.06871974
000010 3d 92 57 3e be 4c f4 be 14 b6 e8 3f 52 e5 cc 3f
       0.21051879 -0.477148 1.8180566 1.6007483
000020 3a 7f 5f 3e 89 3c 3d 3f 35 c3 92 bf c9 3f 02 bf
       0.21825877 0.73920494 -1.1465822 -0.5087858
000030 af 44 60 bf d8 67 80 bf 73 01 dc bf 7f ee 9d bf
       -0.876048 -1.0031691 -1.7187942 -1.2338408
000040 6a 3d b9 3e 25 64 6d bf 64 1d 16 3f 9d 90 f3 be
       0.36179668 -0.92730933 0.58638597 -0.4757127
000050 74 3b af be a6 db 9b 3d fe 8e af bf b1 a8 98 bf
       -0.34225047 0.07610254 -1.3715513 -1.192648
000060 f8 c5 06 40 5c ea 50 3f fd 4a 83 3f bb 09 25 3f
       2.105833 0.81607604 1.025726 0.6446797
000070 d4 42 d3 3f ae 2e d6 3e 85 86 38 be 98 49 13 3e
       1.6504769 0.4183249 -0.18020065 0.14383543

g_func.net.2.weight f4 [2, 32, 1]
000000 b4 4d 2f 3f 75 0e 86 3e 5d 63 0b 3f a3 6c 76 bd
       0.6847794 0.26182905 0.5444849 -0.060162198
000010 89 b7 ab 3d a9 36 1d 3e 92 46 49 bf 33 01 44 3e
       0.08384616 0.15352882 -0.78623307 0.19141082
000020 b3 ac cc 3d 70 76 fc bd 3f 2f b0 3c fd 6d fd 3d
       0.09993877 -0.12327278 0.021506904 0.12374494
000030 88 48 a2 be d5 2e 8c be 56 9a b6 bd ea be d8 3e
       -0.31695962 -0.2737948 -0.08916156 0.42333156
000040 02 70 e5 bd 65 f2 cf bd f7 ae a9 bd 85 67 cc bd
       -0.112030044 -0.10153655 -0.08285325 -0.09980682
000050 f6 61 16 3f df 6d 1a 3e f4 f1 0b 3e b9 4c 47 3d
       0.58743227 0.15080975 0.13666517 0.048657153
000060 24 d7 91 be dc 24 c9 be 1f b9 b6 3d af eb 06 3e
       -0.28484452 -0.39285934 0.08922028 0.13175844
000070 56 db 3a 3f 97 3f 62 3d ac 11 ba bd aa d6 89 3d
       0.7299093 0.055236425 -0.09085402 0.06730397
000080 de 01 25 3e f7 4d aa 3a 5b 6b ec 3d f5 55 10 be
       0.16113994 0.0012993206 0.11543914 -0.1409529
000090 30 71 5f bd cc f6 80 3d fd 43 15 be 85 e5 4a bf
       -0.054551303 0.06297073 -0.14576717 -0.7925647
0000a0 ce ac 0c bd 1a 13 d8 3d 14 51 f4 bd 2a a8 3b bd
       -0.034344487 0.10550518 -0.11929527 -0.04581467
0000b0 1f a0 d6 bc 36 e9 fc 3e ec 8b 2b 3f 7e d6 07 bf
       -0.026199399 0.49396676 0.6701038 -0.53061664
0000c0 3a bb 19 3e e3 d6 28 3e bc 56 83 bd 21 6d d8 3d
       0.15012828 0.16488223 -0.06413028 0.1056769
0000d0 3c a8 d5 3d d8 65 33 3c 1c 15 0c bf f7 fd 41 3f
       0.10432479 0.010949574 -0.5471971 0.75778145
0000e0 39 4a 90 3e 9b ee ce be 07 33 fb 3d ab 39 d2 3d
       0.28181627 -0.40416417 0.12265592 0.102649055
0000f0 4d 78 8b be f8 e2 b4 3d 3a 18 da bb 68 de 9f bc
       -0.2724022 0.08832353 -0.00665572 -0.019515231

g_func.net.2.bias f4 [2]
000000 f4 dd 0d 3e a4 11 33 3e
       0.138542 0.17487198
