ControlSynth_Neural_ODE/preliminary_experiment_example/cs_neural_ode_noised1.pth (torch, 21253 bytes, 12 tensors)

func.net.0.weight f4 [32, 2]
-0.032038804 0.718506 -0.05056024 -0.13253477 0.081422225 -0.13873719 0.02546535 -0.6524777
0.23008516 0.025326863 -0.02708176 0.16146174 0.16438812 0.03402659 -0.021891296 0.16347274
0.03390753 0.51773125 0.010788158 0.122156695 -0.10766225 -0.65806675 -0.07300389 0.115252115
0.369947 -0.519552 0.1522463 0.062726825 -0.3957746 -0.47285149 -0.027730502 -0.11243848
0.16896161 -0.091597155 -0.026922386 -0.7212016 0.05005659 -0.4699442 0.1558019 0.32829434
0.6169123 -0.22967902 -0.06537055 -0.8364141 0.24530235 -0.099023476 0.35525882 0.4952917
-0.1191763 -0.043883592 0.25447878 -0.7977286 0.06660266 0.030455425 0.055660103 0.44815373
0.19366306 0.15078634 -0.036652762 -0.113536865 0.078629576 -0.30763745 -0.00428882 -0.101577535
00000000: 1f3b 03bd 02f0 373f 4118 4fbd 32b7 07be
00000010: b2c0 a63d 1f11 0ebe b69c d03c c708 27bf
00000020: 729b 6b3e 487a cf3c 91da ddbc 3a56 253e
00000030: 5c55 283e 775f 0b3d 6055 b3bc 6665 273e
00000040: 9fe2 0a3d 098a 043f d0c0 303c 4a2d fa3d
00000050: 077e dcbd 1077 28bf 1083 95bd 4d09 ec3d
00000060: b169 bd3e 5c01 05bf 74e6 1b3e ec76 803d
00000070: f8a2 cabe 9719 f2be 142b e3bc 2546 e6bd
00000080: 4604 2d3e 4a97 bbbd 568c dcbc aba0 38bf
00000090: 2408 4d3d 879c f0be 898a 1f3e 3216 a83e
000000a0: f7ed 1d3f fa30 6bbe ffe0 85bd 3c1f 56bf
000000b0: 8a30 7b3e d2cc cabd 7ce4 b53e e096 fd3e
000000c0: b412 f4bd 48bf 33bd 0b4b 823e f137 4cbf
000000d0: fa66 883d a87d f93c d9fb 633d 6874 e53e
000000e0: 9c4f 463e bc67 1a3e 3521 16bd 0486 e8bd
000000f0: 8b08 a13d a882 9dbe 3b89 8cbb e207 d0bd

func.net.0.bias f4 [32]
-0.41482705 -1.3525685 1.0641459 -0.6504772 1.1053294 -1.275898 0.51506513 -1.3233988
-0.64380693 -0.915068 0.417376 -0.6426789 -0.25475967 -0.5508012 0.30104372 -1.0536612
0.5104441 1.062719 0.086529724 -1.0674893 0.12677865 -0.6316088 0.85841894 -0.7197837
0.63035727 0.04497128 0.08261138 -0.37942493 1.488198 -1.1308955 0.7583696 -0.9940759
00000000: 3664 d4be f720 adbf ef35 883f ac85 26bf
00000010: 6f7b 8d3f a050 a3bf 4fdb 033f 2265 a9bf
00000020: 88d0 24bf e541 6abf 4fb2 d53e 9b86 24bf
00000030: dc6f 82be 4f01 0dbf 6722 9a3e 5fde 86bf
00000040: 77ac 023f 2d07 883f 7f36 b13d 7da3 88bf
00000050: 43d2 013e 1db1 21bf 58c1 5b3f bf43 38bf
00000060: 185f 213f ce33 383d 2830 a93d fc43 c2be
00000070: 467d be3f 2fc1 90bf 8324 423f c27b 7ebf

func.net.2.weight f4 [32, 32]
0.0074062124 0.0007514059 -0.47468174 0.021455029 -0.15961199 0.60556084 -0.28863627 0.5754962
0.19002753 0.34554967 -0.15218543 0.44187278 -0.13305749 -0.039472103 0.12461947 0.018227877
-0.31366104 -0.19408993 0.08016307 0.00382492 -0.050483216 -0.057031035 -0.3570888 0.0790967
-0.01771943 -0.3163125 -0.010027049 -0.07783609 -0.1756536 -0.2058573 -0.1304392 -0.36036462
0.1351953 0.122473285 -0.17739885 -0.13275407 -0.06236594 0.3194298 -0.23077711 0.24680994
0.0042510866 -0.045096718 -0.09880174 0.08746655 -0.14344801 0.08123688 0.118119895 -0.10251062
-0.19308974 0.10547167 -0.13832329 -0.039974906 0.14440973 0.1019521 -0.031474307 -0.16482706
0.18454805 -0.05899789 -0.022640299 0.0697504 -0.15850393 -0.045741115 0.040921945 -0.30682036
-0.0029557087 0.5727241 -0.24326965 0.094825104 -0.28638646 -0.11808796 -0.73502356 -0.1652162
0.1355354 -0.28237012 -0.08133752 0.30430356 -0.12341035 -0.2069204 0.019983165 0.27477705
-0.028797414 -0.028564405 0.04237424 -0.18217397 -0.031988893 -0.060463153 -0.08067582 0.0023874214
0.22582673 0.06138428 -0.54878527 0.040291723 -0.6832149 0.14529489 -0.15039878 0.056191172
0.17733079 -0.10045394 -0.007498001 0.03327744 0.015118085 0.37126765 0.17766707 0.14561589
-0.0038792181 0.45637244 -0.16180202 -0.0066852104 0.0973109 0.26005954 -0.08163002 -0.0142862415
-0.051055364 0.10407515 -0.13272576 -0.009456226 -0.10411835 0.07674111 0.06424354 -0.055519626
-0.31599396 -0.08366557 0.19150461 0.29428336 0.20453371 0.121464655 -0.13282478 -0.05280063
-0.058931734 -0.2223685 -0.32374582 -0.20526448 -0.36359468 0.6092598 -0.1046049 0.5718835
0.15747721 0.072651535 -0.16545407 0.1310079 -0.19804057 -0.107556716 0.021655938 -0.18067966
-0.3649568 -0.14932966 -0.20359132 0.2508575 0.08586842 -0.011077614 -0.2409818 0.18368684
0.13421544 -0.16330488 -0.1254342 0.07123798 -0.35082513 -0.018928459 -0.062734015 -0.12682885
-0.06606314 0.36031428 -0.011721387 -0.100288354 0.03252922 -0.25104186 -0.21518901 0.054294836
0.07200102 -0.13637969 -0.16554002 0.05058135 -0.030443888 -0.046393797 0.21535158 0.1454167
0.119211175 0.018233955 -0.03539625 -0.084509045 -0.04216436 -0.064454325 -0.044845257 -0.25132835
0.054258566 0.22181235 -0.23287426 0.07721855 -0.29081255 0.16010629 0.0034179788 0.17487285
-0.10185263 0.49603513 0.002073864 0.19665883 -0.15267344 -0.25958034 -0.21063691 -0.21170208
-0.019476466 -0.27298662 -0.073506996 -0.07998851 0.16890255 -0.14620218 0.19320571 0.2650655
-0.07036377 -0.019213362 -0.05825916 -0.057056144 -0.20875472 0.2636784 -0.054978155 0.10103433
0.22329196 0.014546665 -0.29653877 -0.07307437 -0.31876972 0.13388693 -0.08354675 0.3059868
-0.17707649 -0.2463583 -0.0018374904 0.02911462 0.046066288 0.22675256 -0.024006268 0.45284718
-0.09188113 0.075196125 0.14287852 0.23645625 -0.016939616 0.16695894 -0.026721487 -0.050524797
0.066963166 0.06293126 0.09132996 0.15143701 -0.17849438 -0.118021645 0.055940505 -0.14122143
-0.106801696 0.08238386 0.13537398 0.20755936 0.20473309 0.07487158 0.08927053 -0.3490526
00000000: d0af f23b fff9 443a 7c09 f3be 75c2 af3c
00000010: 5371 23be 0906 1b3f 22c8 93be b853 133f
00000020: 9496 423e e3eb b03e 7fd6 1bbe 263d e23e
00000030: 3940 08be 80ad 21bd 7e38 ff3d a152 953c
00000040: 2e98 a0be 83bf 46be 892c a43d 82ab 7a3b
00000050: 7dc7 4ebd 6099 69bd 58d4 b6be 73fd a13d
00000060: 5728 91bc b6f3 a1be 7e48 24bc 8768 9fbd
00000070: 8ade 33be 42cc 52be db91 05be b681 b8be
00000080: a370 0a3e 46d3 fa3d 0ba8 35be aff0 07be
00000090: 6e73 7fbd 4e8c a33e d650 6cbe bfbb 7c3e
000000a0: b34c 8b3b 56b7 38bd 9158 cabd aa21 b33d
000000b0: 09e4 12be 855f a63d d8e8 f13d 17f1 d1bd
000000c0: 51b9 45be 8801 d83d 9fa4 0dbe babc 23bd
000000d0: 25e0 133e 43cc d03d 34eb 00bd 6dc8 28be
000000e0: 2afa 3c3e c6a7 71bd 2678 b9bc 4cd9 8e3d
000000f0: db4e 22be 095b 3bbd c59d 273d 8f17 9dbe
00000100: 90b4 41bb 0c9e 123f ae1b 79be aa33 c23d
00000110: 3fa1 92be 1ad8 f1bd 812a 3cbf 6f2e 29be
00000120: cbc9 0a3e d192 90be 4994 a6bd adcd 9b3e
00000130: 91be fcbd f1e2 53be bcb3 a33c 94af 8c3e
00000140: 8ee8 ebbc e6ff e9bc 9c90 2d3d d08b 3abe
00000150: c906 03bd 36a8 77bd 5d39 a5bd 4976 1c3b
00000160: 1f3f 673e 156e 7b3d 317d 0cbf ef08 253d
00000170: 2ce7 2ebf 2fc8 143e 2302 1abe b728 663d
00000180: 3496 353e ccba cdbd cbb1 f5bb ed4d 083d
00000190: d8b1 773c cb16 be3e 5bee 353e 551c 153e
000001a0: 7b3a 7ebb a6a9 e93e 6eaf 25be 9c0f dbbb
000001b0: f04a c73d 8626 853e a42d a7bd d710 6abc
000001c0: 6e1f 51bd 5a25 d53d 43e9 07be 49ee 1abc
000001d0: 003c d5bd 712a 9d3d 1e92 833d 8c68 63bd
000001e0: f6c9 a1be db58 abbd c919 443e 4fac 963e
000001f0: 4971 513e 76c2 f83d 3803 08be 7945 58bd
00000200: 6762 71bd 91b4 63be 03c2 a5be da30 52be
00000210: 1529 babe 73f8 1b3f 183b d6bd f566 123f
00000220: b541 213e 54ca 943d cb6c 29be ef26 063e
00000230: 26cb 4abe b246 dcbd cb67 b13c 1704 39be
00000240: 9edb babe e0e9 18be 3e7a 50be 6570 803e
00000250: c8db af3d e17e 35bc efc3 76be 6718 3c3e
00000260: c66f 093e 6539 27be d371 00be 38e5 913d
00000270: 5a9f b3be db0f 9bbc b17a 80bd 6cdf 01be
00000280: 1d4c 87bd 1d7b b83e 0f0b 40bc fb63 cdbd
00000290: 5c3d 053d 8f88 80be 825a 5cbe 4364 5e3d
000002a0: 4575 933d 1ea7 0bbe 5383 29be 642e 4f3d
000002b0: 7665 f9bc 6c07 3ebd 2085 5c3e 1ee8 143e
000002c0: fd24 f43d 605f 953c a9fb 10bd 1413 adbd
000002d0: 89b4 2cbd a100 84bd a9af 37bd 1cae 80be
000002e0: 3b3e 5e3d c722 633e 9776 6ebe c224 9e3d
000002f0: 62e5 94be e7f2 233e 2b00 603b de11 333e
00000300: 1d98 d0bd 51f8 fd3e aae9 073b ef60 493e
00000310: 6d56 1cbe b7e7 84be 34b1 57be 6ec8 58be
00000320: 1c8d 9fbc e7c4 8bbe d68a 96bd 04d1 a3bd
00000330: caf4 2c3e 06b6 15be b8d7 453e aab6 873e
00000340: e11a 90bd 5765 9dbc 28a1 6ebd b4b3 69bd
00000350: ccc3 55be db00 873e c630 61bd 16eb ce3d
00000360: a6a6 643e 2355 6e3c eed3 97be 04a8 95bd
00000370: c935 a3be a819 093e 8f1a abbd 4daa 9c3e
00000380: 8a53 35be 5a45 7cbe f2d7 f0ba c981 ee3c
00000390: 01b0 3c3d d331 683e cba8 c4bc 96db e73e
000003a0: 2d2c bcbd 6d00 9a3d bf4e 123e 9621 723e
000003b0: f3c4 8abc 49f7 2a3e 05e7 dabc 17f3 4ebd
000003c0: fc23 893d 1be2 803d 340b bb3d 4e12 1b3e
000003d0: 3bc7 36be 55b5 f1bd df21 653d 5a9c 10be
000003e0: d9ba dabd dfb8 a83d 7a9f 0a3e 718a 543e
000003f0: 8da5 513e 4556 993d 78d3 b63d 06b7 b2be

func.net.2.bias f4 [32]
0.23852605 0.114896245 0.25040144 0.03442003 0.021258615 0.18528026 -0.09100612 -0.12442358
0.040447764 0.038562212 -0.024212908 0.038487054 0.17271689 0.0786691 0.22224686 0.036116358
0.11627507 -0.09342426 0.028085921 0.19175224 0.06903573 -0.078729585 0.0039147036 0.02778693
0.12433725 0.16838907 -0.021319157 0.08111344 0.11214603 0.16857739 0.033814933 0.15972547
00000000: 2c40 743e b94e eb3d 9e34 803e 04fc 0c3d
00000010: 8c26 ae3c 1cba 3d3e 6b61 babd cad1 febd
00000020: 8eac 253d 69f3 1d3d 265a c6bc 9aa4 1d3d
00000030: b2dc 303e 441d a13d ae94 633e bfee 133d
00000040: a021 ee3d 3855 bfbd 7214 e63c b35a 443e
00000050: 9b62 8d3d fa3c a1bd ea46 803b 6aa1 e33c
00000060: 87a4 fe3d 2f6e 2c3e 83a5 aebc ce1e a63d
00000070: d1ac e53d 8d9f 2c3e 8781 0a3d 138f 233e

func.net.4.weight f4 [2, 32]
-0.36454722 -0.12119639 0.15562956 -0.12601146 -0.29656562 0.22646998 0.1789999 -0.34129047
0.09512478 0.070375964 0.16254207 0.09762272 0.21325707 -0.2418911 -0.4312244 0.015853917
-0.09308254 0.2457345 0.03124055 -0.0033345316 0.15211008 0.1619581 -0.30558932 -0.30700457
-0.20748693 0.22621077 0.079880826 -0.16826576 0.080938205 -0.22935192 0.28520954 0.11584851
-0.26193494 -0.10868084 -0.4651511 0.17270087 -0.13214017 -0.23732953 -0.17420584 0.08178686
0.26956534 -0.28893286 0.10703003 -0.1326982 -0.009419115 0.16305923 -0.102679454 0.2932235
0.36599213 -0.12550777 -0.15920122 -0.4384853 -0.5276276 -0.054373853 0.22321305 -0.30114123
0.13797115 -0.29506665 -0.2465563 0.1992084 -0.32662418 0.13560878 0.0040270155 0.21972403
00000000: efa5 babe d035 f8bd 5b5d 1f3e 2609 01be
00000010: 73d7 97be bfe7 673e c04b 373e a0bd aebe
00000020: c8d0 c23d 4621 903d 6e71 263e 6cee c73d
00000030: 1060 5a3e 4db2 77be 72c9 dcbe 13e0 813c
00000040: 0fa2 bebd d3a1 7b3e 2fec ff3c 2888 5abb
00000050: bfc2 1b3e 58d8 253e 3476 9cbe b42f 9dbe
00000060: 7477 54be cca3 673e 8f98 a33d dc4d 2cbe
00000070: eec2 a53d 3bdb 6abe fc06 923e fc41 ed3d
00000080: 561c 86be 0f94 debd 4928 eebe 7fd8 303e
00000090: c14f 07be 8306 73be 0463 32be df7f a73d
000000a0: 7804 8a3e 02ef 93be 8f32 db3d 09e2 07be
000000b0: a252 1abc 00f9 263e 9b49 d2bd 6421 963e
000000c0: 5263 bb3e 1c85 00be a505 23be 2581 e0be
000000d0: 9a12 07bf 1eb7 5ebd f691 643e 2f2f 9abe
000000e0: 4f48 0d3e fa12 97be 4179 7cbe 49fd 4b3e
000000f0: 493b a7be 07dd 0a3e 0ef5 833b 56ff 603e

func.net.4.bias f4 [2]
-0.13993284 0.036715582
00000000: 8e4a 0fbe 1463 163d

g_func.net.0.weight f4 [52, 2, 1]
0.0066132704 0.1144448 0.24185356 0.9349192 0.26336244 0.36486587 -0.2104875 -0.7582436
-0.43286836 -0.22746018 -0.28571332 -0.77903086 -0.0029286272 -0.09718866 -0.36002702 0.39771065
-0.8113772 0.13128474 -0.026808064 -0.103142165 0.27195522 -0.5188987 -0.14047259 0.7085074
-0.73262066 -0.071308315 0.43968382 0.35831124 0.6729258 -0.5594544 0.33893216 0.81499404
0.082775794 0.017305303 -0.37235853 -0.4159186 0.29726315 0.06888757 0.115131095 -0.027168468
-0.27002746 0.32557946 -0.09536702 0.0056200335 -0.00096026 0.14676537 -0.7203875 0.20413809
0.058506045 0.14359131 -0.14111708 -0.9132681 0.6062746 -0.3761772 0.030030303 0.101087585
0.009167508 -0.14242686 0.08972964 0.04304038 -0.039326828 -0.33106995 -0.014593199 0.11128883
0.032207496 0.80710757 0.054320756 0.020244565 0.075466305 -0.000357895 -0.2802488 -0.13020116
0.016142758 -0.08608248 0.103762165 0.015332086 -0.03177177 -0.13255768 -0.3083054 -0.6176601
-0.12242116 0.41239738 -0.45085976 0.67638236 0.4573228 0.40539303 -0.46073923 0.715817
0.047333512 0.03220954 0.29849428 -0.22015701 -0.09550276 0.531146 -0.21731223 0.53036565
0.02850963 -0.10790446 0.040331233 -0.72725457 0.17767084 0.665091 -0.4475791 0.18413329
00000000: 22b4 d83b 0962 ea3d 76a8 773e dd56 6f3f
00000010: 71d7 863e b3cf ba3e 098a 57be 411c 42bf
00000020: eca0 ddbe 52eb 68be 0449 92be 916e 47bf
00000030: 36ee 3fbb d90a c7bd 7655 b8be bba0 cb3e
00000040: 6bb6 4fbf 826f 063e 969c dbbc 333c d3bd
00000050: b73d 8b3e 8cd6 04bf 0cd8 0fbe be60 353f
00000060: 078d 3bbf 180a 92bd 3d1e e13e 9274 b73e
00000070: dd44 2c3f 6738 0fbf 8488 ad3e 73a3 503f
00000080: 5b86 a93d dac3 8d3c c7a5 bebe 48f3 d4be
00000090: e032 983e ed14 8d3d dac9 eb3d 6890 debc
000000a0: 0a41 8abe 5ab2 a63e c94f c3bd 4228 b83b
000000b0: f5b9 7bba a949 163e 516b 38bf 9309 513e
000000c0: 09a4 6f3d 9a09 133e ff80 10be f0cb 69bf
000000d0: d034 1b3f 4c9a c0be 1c02 f63c 0207 cf3d
000000e0: 5133 163c 59d8 11be 2cc4 b73d 1c4b 303d
000000f0: 2b15 21bd 0082 a9be 5018 6fbc 66eb e33d
00000100: 02ec 033d 9a9e 4e3f 717f 5e3d eed7 a53c
00000110: 148e 9a3d dba3 bbb9 c57c 8fbe 7453 05be
00000120: d13d 843c 034c b0bd 4281 d43d 6e33 7b3c
00000130: 1e23 02bd 33bd 07be 35da 9dbe f91e 1ebf
00000140: f2b7 fabd c025 d33e 17d7 e6be 6527 2d3f
00000150: 3726 ea3e ad8f cf3e 03e6 ebbe c83f 373f
00000160: c9e0 413d 27ee 033d 3ed4 983e d770 61be
00000170: f396 c3bd 2ff9 073f 1987 5ebe 0bc6 073f
00000180: 078d e93c 03fd dcbd 5d32 253d 5b2d 3abf
00000190: 58ef 353e 6743 2a3f 1629 e5be 708d 3c3e

g_func.net.0.bias f4 [52]
-0.8879644 -0.1265741 -0.68087065 -0.684503 -0.41807887 0.8175121 -0.7272864 -0.020436898
0.33823434 -0.76826453 -0.39196953 0.48647436 0.05838408 0.019395512 -0.62959206 -0.24136214
-0.71076566 0.3210987 -0.53823847 -1.0573714 0.41503352 0.7489856 1.292107 -0.29508084
1.2057914 0.4023575 -0.6715099 0.7137445 1.3232062 -1.0984443 0.944052 -0.8457724
-0.27484375 -0.15177815 -0.3629656 0.8988095 -0.66935134 -0.9300226 -1.082498 -0.114418104
-0.08524417 -0.09839662 0.4300033 -0.3120399 -0.3327025 0.42025435 -0.37634423 0.6505884
-1.06618 -0.023466138 -0.5735905 0.6454044
00000000: a351 63bf a49c 01be 8a4d 2ebf 973b 2fbf
00000010: 6f0e d6be 7948 513f 712f 3abf 486b a7bc
00000020: 0d2d ad3e fcac 44bf 3bb0 c8be 2b13 f93e
00000030: 2524 6f3d 56e3 9e3c f22c 21bf a327 77be
00000040: bdf4 35bf 0c67 a43e ffc9 09bf f257 87bf
00000050: 467f d43e 85bd 3f3f c363 a53f d614 97be
00000060: 5f57 9a3f cd01 ce3e 13e8 2bbf f6b7 363f
00000070: d25e a93f d399 8cbf 64ad 713f 8a84 58bf
00000080: 52b8 8cbe bb6b 1bbe a1d6 b9be 6118 663f
00000090: 9c5a 2bbf f615 6ebf 4b8f 8abf 0a54 eabd
000000a0: 7f94 aebd 2b84 c9bd 6429 dc3e b2c3 9fbe
000000b0: fb57 aabe 942b d73e 31b0 c0be f68c 263f
000000c0: 9678 88bf 0f3c c0bc d4d6 12bf 3939 253f

g_func.net.2.weight f4 [52, 52, 1]
0.0019847495 0.013380741 -0.021464782 0.009614135 0.14478946 -0.015728474 0.35637274 0.020448579
-0.14436021 0.28781235 0.22499785 -0.13277951 -0.1494583 0.021856723 0.15110156 0.059168115
0.03393788 -0.14775047 -0.02586609 0.07149051 -0.012294015 -0.22395422 -0.4883879 -0.15987606
-0.4111259 -0.032767393 0.10289108 -0.31267214 0.07363717 -0.07346252 -0.008086502 -0.14889766
0.045222342 -0.011169153 0.3773767 -0.033237506 0.46784687 0.0020005726 0.37105805 -0.037497114
-0.02598099 -0.08740013 -0.11475476 0.02796306 -0.06543485 0.014783511 -0.11696839 -0.05583206
0.18431161 0.16081199 0.0822368 -0.19270265 0.23883994 0.11094695 0.09770675 -0.049912017
-0.022768112 -0.01723886 -0.07541958 0.006510688 0.06388827 -0.16786875 -0.22033183 0.012079495
0.05818967 0.031833142 0.016303008 0.09747991 0.048979566 0.06409901 -0.08265496 -0.20725091
0.009698219 0.068599164 0.08200797 0.061992988 0.21156088 -0.032052014 -0.22993548 0.2407852
-0.45181403 0.1931178 0.054078594 0.26039675 -0.030793875 0.012187069 -0.2888963 0.03386048
-0.26608944 0.06535355 -0.19839726 0.14440355 0.055758614 -0.09979202 -0.11040987 0.06213888
0.042081203 -0.14613205 0.189567 0.07198711 -0.06729183 -0.075334996 -0.019957906 0.16033301
0.25129515 -0.13247706 -0.0391504 0.1664832 -0.029740982 0.08615778 -0.3463021 0.04269217
-0.076477505 -0.013457381 -0.1457235 0.054568086 0.04787099 -0.18710123 -0.113708355 -0.05427621
0.06557832 0.031357594 -0.034967765 -0.16848868 0.15199247 0.033939883 0.30926445 0.07323221
0.0999952 0.044219542 0.016321637 0.11047017 -0.42607272 0.22542867 -0.013088632 0.07317636
-0.08365054 0.17453684 -0.1717917 0.07609903 -0.1529328 -0.1123698 -0.1359983 0.15044568
-0.025263749 -0.1357773 -0.084864505 0.10053595 0.15347832 -0.13262402 -0.031607382 0.08294184
-0.12675825 0.09247217 -0.08585809 0.11345838 0.5075319 0.2074872 0.08287847 -0.04021404
0.06172428 -0.05833186 -0.067298025 0.17156154 0.036019545 -0.14670596 0.07959288 0.066339836
0.09603452 0.16281745 -0.02933336 -0.05144321 0.09035586 -0.03169565 -0.052569546 -0.06990538
0.072222374 -0.14833477 -0.14561152 -0.003403174 0.061337307 -0.09543758 -0.07119534 0.06683291
-0.30547777 0.30552828 -0.21718164 0.3281221 0.13709569 0.25018415 -0.045426104 -0.16057616
-0.013141503 0.06793821 -0.022222161 0.011915414 0.016414603 0.042472243 0.017997405 -0.06196484
0.30024287 0.031382933 -0.037923776 -0.066390045 0.017228417 -0.1456884 0.034827925 -0.1049486
-0.18578424 -0.11847178 0.1347884 -0.010410285 -0.17744616 0.12155135 -0.018806918 0.0048491554
-0.029815998 0.1795326 0.090864666 -0.26624244 -0.21418804 0.0041946247 -0.061463248 0.0013212637
-0.25895193 0.022570478 -0.08929762 0.15216732 -0.05769826 -0.07754151 0.19940782 0.013890263
-0.19143577 0.2495933 0.124885015 -0.15737972 -0.1098594 0.024545034 0.059089947 -0.08108939
-0.13644235 -0.13695763 -0.105212316 -0.07267027 -0.118664645 0.117592014 0.0012339812 -0.023555325
-0.14706513 0.08324572 0.070068024 -0.08303114 -0.26515102 0.14200984 -0.121241294 -0.04887683
00000000: 9212 023b e53a 5b3c e9d6 afbc 9b84 1d3c
00000010: b043 143e 00d9 80bc 7d76 b63e c783 a73c
00000020: 2ad3 13be 245c 933e d665 663e 5af7 07be
00000030: 990b 19be df0c b33c 5eba 1a3e 445a 723d
00000040: 7202 0b3d e64b 17be 1fe5 d3bc 9e69 923d
00000050: d66c 49bc 4154 65be fb0d fabe 8db6 23be
00000060: 187f d2be 1a37 06bd 8fb8 d23d 9016 a0be
00000070: 16cf 963d 8573 96bd 3f7d 04bc a178 18be
00000080: 103b 393d d3fe 36bc 8537 c13e 0d24 08bd
00000090: a089 ef3e 0a1c 033b 52fb bd3e 9396 19bd
000000a0: 16d6 d4bc d7fe b2bd 8b04 ebbd ca12 e53c
000000b0: b502 86bd 8a36 723c 208d efbd 28b0 64bd
000000c0: 2fbc 3c3e e6ab 243e c46b a83d d853 45be
000000d0: 7592 743e 2838 e33d 7a1a c83d 8b70 4cbd
000000e0: 3184 babc 8238 8dbc 9575 9abd 9c57 d53b
000000f0: dad7 823d c9e5 2bbe ab9e 61be 13e9 453c
00000100: 4b58 6e3d 7863 023d e38d 853c 8ca3 c73d
00000110: cc9e 483d 5746 833d 0147 a9bd 9539 54be
00000120: 47e5 1e3c b87d 8c3d cbf3 a73d 5cec 7d3d
00000130: 6aa3 583e f948 03bd 3574 6bbe 6590 763e
00000140: 2b54 e7be acc0 453e 8481 5d3d b952 853e
00000150: 7043 fcbc 46ac 473c 37ea 93be 49b1 0a3d
00000160: e03c 88be 15d8 853d a728 4bbe 86de 133e
00000170: 2563 643d c25f ccbd 921e e2bd 5785 7e3d
00000180: 575d 2c3d a4a3 15be da1d 423e fa6d 933d
00000190: 4dd0 89bd 3c49 9abd c37e a3bc 562e 243e
000001a0: c2a9 803e 11a8 07be 2b5c 20bd 927a 2a3e
000001b0: 5ca3 f3bc 7d73 b03d 824e b1be fcdd 2e3d
000001c0: 3da0 9cbd 597c 5cbc 8b38 15be c982 5f3d
000001d0: 5f14 443d 7797 3fbe eddf e8bd bb50 5ebd
000001e0: ed4d 863d d270 003d 5c3a 0fbd 4c88 2cbe
000001f0: eaa3 1b3e 8c04 0b3d e957 9e3e c5fa 953d
00000200: 49ca cc3d 8d1f 353d f4b4 853c 2f3e e23d
00000210: 3426 dabe c6d6 663e b471 56bc 7ddd 953d
00000220: f950 abbd c9b9 323e 2aea 2fbe cfd9 9b3d
00000230: 6a9a 1cbe 2322 e6bd 2343 0bbe 6f0e 1a3e
00000240: ecf5 cebc 3409 0bbe 71cd adbd cbe5 cd3d
00000250: 6c29 1d3e 97ce 07be be76 01bd 69dd a93d
00000260: eacc 01be 0d62 bd3d 5ed6 afbd de5c e83d
00000270: 9ced 013f 8677 543e 30bc a93d 7ab7 24bd
00000280: 99d2 7c3d 63ed 6ebd 8cd3 89bd d4ad 2f3e
00000290: 3b89 133d 163a 16be 9801 a33d 2edd 873d
000002a0: bfad c43d 9eb9 263e 844c f0bc 1eb6 52bd
000002b0: 7e0c b93d 4cd3 01bd 2a53 57bd 8d2a 8fbd
000002c0: 53e9 933d 12e5 17be 301b 15be c907 5fbb
000002d0: d43c 7b3d c774 c3bd ddce 91bd b1df 883d
000002e0: 9567 9cbe 346e 9c3e dd64 5ebe 9fff a73e
000002f0: d062 0c3e 2318 803e b910 3abd 146e 24be
00000300: 754f 57bc 3023 8b3d 400b b6bc de38 433c
00000310: eb77 863c 60f7 2d3d 4b6f 933c d8ce 7dbd
00000320: 6fb9 993e 648b 003d f655 1bbd 81f7 87bd
00000330: 9c22 8d3c 572f 15be baa7 0e3d 4bef d6bd
00000340: 393e 3ebe 55a1 f2bd f805 0a3e e68f 2abc
00000350: 72b4 35be eaef f83d f710 9abc aae5 9e3b
00000360: ae40 f4bc 65d7 373e 4117 ba3d ee50 88be
00000370: 1c54 5bbe 1073 893b e3c0 7bbd 412e ad3a
00000380: 5995 84be b9e5 b83c ace1 b6bd c0d1 1b3e
00000390: 0355 6cbd 15ce 9ebd 9031 4c3e fc93 633c
000003a0: bd07 44be 6395 7f3e b7c3 ff3d 2628 21be
000003b0: f7fd e0bd ab12 c93c 4d08 723d 3212 a6bd
000003c0: 8bb7 0bbe 9f3e 0cbe 8e79 d7bd 27d4 94bd
000003d0: 7306 f3bd 15d4 f03d 8abd a13a 19f7 c0bc
000003e0: 3e98 16be bb7c aa3d d37f 8f3d 3b0c aabd
000003f0: e0c1 87be 076b 113e 5b4d f8bd 1233 48bd

g_func.net.2.bias f4 [52]
0.113433294 0.031755574 0.091572985 0.11514349 0.1503859 0.044010576 -0.027814494 0.13676111
0.16115355 0.21832201 0.07545176 0.23182411 0.18769674 0.15737031 0.04995355 0.1350534
0.029829172 0.022445237 0.18165047 0.1114243 -0.029941542 -0.016437 -0.08566534 0.020704132
0.0656514 0.11043708 -0.009022073 0.22246316 0.10435134 0.010137389 0.11477039 0.14135896
0.020573381 0.094569 -0.025042893 -0.07325627 -0.06546699 0.11529558 0.017668582 0.1799867
0.044025417 0.02021897 0.0037217468 0.08968709 -0.045992862 0.05040421 -0.028933423 0.054648228
0.13384761 0.29739848 -0.055740684 0.013103127
00000000: b74f e83d 2212 023d 9e8a bb3d 5ad0 eb3d
00000010: c3fe 193e 6f44 343d 39db e3bc 1b0b 0c3e
00000020: 7005 253e ce8f 5f3e 7486 9a3d 4d63 6d3e
00000030: 9333 403e af25 213e 189c 4c3d 704b 0a3e
00000040: 4f5c f43c 13df b73c 9502 3a3e 6c32 e43d
00000050: f747 f5bc e3a6 86bc 4f71 afbd b69b a93c
00000060: 3e74 863d d62c e23d 51d1 13bc 62cd 633e
00000070: 28b6 d53d 4b17 263c bd0c eb3d 67c0 103e
00000080: 8289 a83c 64ad c13d c126 cdbc 6207 96bd
00000090: 8f13 86bd 1720 ec3d b4bd 903c 6f4e 383e
000000a0: ff53 343d 41a2 a53c 8de8 733b ddad b73d
000000b0: 0363 3cbd a574 4e3d c905 edbc d2d6 5f3d
000000c0: 590f 093e 9d44 983e 5850 64bd 7fae 563c

g_func.net.4.weight f4 [2, 52, 1]
0.1933508 -0.15383625 -0.16706009 -0.28568444 0.10845026 -0.34030804 0.23034745 0.18282586
0.09518187 0.053938974 0.047137555 0.0843344 0.09803343 0.018379176 0.09541312 -0.21810055
0.10902374 -0.22878861 0.014634813 0.24091847 0.19542265 0.16306001 0.20792542 -0.027713345
-0.110008515 -0.04320428 -0.05120691 0.06974878 0.27145082 -0.1380159 -0.18690342 -0.24786767
0.055377413 -0.17745349 0.30206352 -0.30342466 -0.037353132 0.25261182 0.20479126 -0.14605387
0.08690859 0.17956254 0.04767598 0.11710127 -0.22374283 0.2743758 -0.2542634 0.20621206
0.121184506 0.001845573 0.16755454 0.1849877 0.15201694 -0.15546598 -0.10417266 0.08892794
-0.19716747 0.13303229 -0.13850541 -0.13389683 0.27495757 0.32098016 -0.27623433 -0.32252207
-0.305299 0.3460708 -0.20782089 0.10602451 0.29585055 -0.0582225 0.27659833 0.06365413
-0.04283116 0.10100794 0.08235148 -0.23535553 0.3548277 -0.27538908 -0.15051901 -0.24605806
0.15737988 -0.24207602 -0.17405972 0.08444534 -0.13945629 0.3667218 0.17802191 0.12684894
-0.22792336 0.24218653 0.22041576 -0.2435393 -0.2478086 0.13134941 -0.29961348 -0.24312434
0.18911694 0.053007223 0.27317595 -0.06893761 0.24294598 -0.24907304 -0.055207323 0.07259193
00000000: c1fd 453e 4087 1dbe cd11 2bbe 3b45 92be
00000010: 2b1b de3d db3c aebe 34e0 6b3e b436 3b3e
00000020: b6ee c23d 1def 5c3d 4f13 413d 84b7 ac3d
00000030: c0c5 c83d ed8f 963c f467 c33d c055 5fbe
00000040: d747 df3d 9047 6abe dbc6 6f3c 55b3 763e
00000050: e01c 483e 34f9 263e 67ea 543e 1907 e3bc
00000060: 254c e1bd f9f6 30bd 56be 51bd 73d8 8e3d
00000070: 9afb 8a3e 0a54 0dbe 9c63 3fbe 06d1 7dbe
00000080: 6dd3 623d 5eb6 35be 12a8 9a3e 7a5a 9bbe
00000090: 99ff 18bd 5656 813e cdb4 513e 258f 15be
000000a0: 21fd b13d 3edf 373e e347 433d cad2 ef3d
000000b0: d71c 65be fc7a 8c3e d02e 82be 4129 533e
000000c0: 952f f83d 27e7 f13a 6b93 2b3e 6a6d 3d3e
000000d0: 54aa 1b3e 7932 1fbe 7a58 d5bd da1f b63d
000000e0: 45e6 49be 9e39 083e 5dd4 0dbe 401c 09be
000000f0: 3dc7 8c3e 8357 a43e 966e 8dbe 9d21 a5be
00000100: 2750 9cbe 3130 b13e 00cf 54be 6123 d93d
00000110: b979 973e b77a 6ebd 4c9e 8d3e 195d 823d
00000120: ba6f 2fbd 40dd ce3d e5a7 a83d 0a01 71be
00000130: faab b53e ccff 8cbe a821 1abe a5f6 7bbe
00000140: 3128 213e c7e2 77be b63c 32be aef1 ac3d
00000150: a1cd 0ebe f6c2 bb3e 604b 363e b0e4 013e
00000160: be64 69be bfff 773e abb4 613e 5e62 79be
00000170: 8ac1 7dbe 7680 063e f066 99be 96f5 78be
00000180: dfa7 413e 1a1e 593d b8dd 8b3e 292f 8dbd
00000190: d5c6 783e 010d 7fbe 1321 62bd 14ab 943d

g_func.net.4.bias f4 [2]
-0.074024975 0.009679571
00000000: 689a 97bd 1097 1e3c
