ControlSynth_Neural_ODE/preliminary_experiment_example/neural_ode_noised1.pth (torch, 4385 bytes, 4 tensors)

func.net.0.weight f4 [128, 2]
000000 ac 3c 26 be 8b e7 ad 3e 42 d9 c9 3e e0 62 08 3f
       -0.16234082 0.33965716 0.39423567 0.5327587
000010 74 49 05 3f 0e 9d d9 3e b2 ea 35 bf ec 36 78 be
       0.52065206 0.42502636 -0.7106124 -0.24239701
000020 1d a5 3b bf f1 de 88 3e a6 01 0f be 6c f9 b7 3d
       -0.7329882 0.2673259 -0.13965473 0.0898312
000030 92 5a 41 3f df 12 5a be 90 99 c0 3d d5 e1 a0 bd
       0.75528824 -0.21296261 0.0940429 -0.07855574
000040 69 63 57 be db 2c 45 3d bf 15 38 3f 80 b9 82 be
       -0.21034016 0.04813848 0.7190818 -0.2553215
000050 b0 a8 5c 3e 1e 4f cf 3e 10 0a b4 3d 63 98 2b 3f
       0.21548724 0.4049005 0.08790982 0.670294
000060 ea ea 4c 3e e2 30 c6 3e 5b 19 e6 bd 6d 98 51 be
       0.20011488 0.3870917 -0.11235305 -0.20468302
000070 ad 06 13 bf e3 78 26 3f 14 e5 db be 99 2f 0f bf
       -0.5743206 0.6502821 -0.4294821 -0.55932003
000080 ff 59 cc bc 9c f4 24 be f9 80 b7 bd 4f 5c 78 3d
       -0.024945257 -0.16108936 -0.089601465 0.060634907
000090 4b 20 31 3f 6a 98 f5 be 67 14 d5 be df ff 35 3f
       0.691899 -0.47967845 -0.41617128 0.71093553
0000a0 a7 ef 31 bd 77 89 0b 3e e6 ed 1c bc 6d d7 70 3d
       -0.04344144 0.13626657 -0.009578204 0.058799196
0000b0 f0 01 d3 3e 16 d1 5f bd cf da 03 3d f8 fe 24 3e
       0.41212416 -0.05464276 0.032191094 0.16112888
0000c0 56 ab 2d 3e ac a4 bc bd a3 d2 88 bd c3 2a 0f be
       0.1695989 -0.09211096 -0.06680801 -0.13981156
0000d0 50 9f 96 bd 79 33 e0 bc 09 91 02 3f 86 ec 38 bf
       -0.07354605 -0.027368294 0.51002556 -0.72235906
0000e0 48 5f 22 3e a9 58 0e bf 95 6b 2d 3d 49 db 55 bd
       0.1585666 -0.55604035 0.042338926 -0.05221108
0000f0 61 6e f2 be 9f ff da 3e 16 d2 fb be 50 d2 2d 3f
       -0.47349837 0.42773148 -0.4918372 0.67899036
000100 ee 0a 9e 3e f3 09 2c 3f 53 26 c4 3e e2 b0 9a 3d
       0.30867714 0.6720268 0.3831049 0.07553269
000110 c0 2f 2c 3f fc 67 d2 3d 7d 1c 72 be 41 05 1c 3f
       0.6726036 0.1027374 -0.2364368 0.60945517
000120 33 40 cb 3d 5b c7 f4 3a 9b 0a cf 3e f8 af c6 be
       0.099243544 0.0018675135 0.4043778 -0.38806129
000130 0c 5d 92 3e 49 14 f1 3e 32 4f 09 be 1a f3 11 bf
       0.28586614 0.4708579 -0.13409117 -0.5701157
000140 5f 90 af bd be 26 60 bc 34 d0 3a 3a 22 50 6a be
       -0.085724585 -0.013681112 0.00071263616 -0.2288213
000150 27 f4 c9 bd 0d c4 07 3a f2 6d b0 be 5e bc 5a 3f
       -0.098610215 0.0005179055 -0.34458882 0.85443676
000160 0e cf f9 bd c0 2b 03 3f 0d c8 3f 3e 4f cf 45 bf
       -0.12197696 0.5123863 0.18728657 -0.7726945
000170 7b 42 b8 3e 8a 0e 46 bf fc b6 b6 3c c0 e4 9a 3e
       0.3598822 -0.77365935 0.02230405 0.30252647
000180 f6 d9 97 be af b0 14 bf dd 5f 7b 3d de a8 25 3d
       -0.29658478 -0.580821 0.06137072 0.040444247
000190 04 6f fb be 03 45 c0 3e 1b ad e7 3c 46 e3 e9 bd
       -0.49108136 0.37552652 0.028280785 -0.11420302
0001a0 f0 f8 49 3e 7b 02 af 3e 9c 34 4f 3f 16 b5 71 3e
       0.19723868 0.3418158 0.8093965 0.23604235
0001b0 02 18 1d 3f 2a 78 a4 3e 4a fe 9a 3e 62 b9 89 3e
       0.6136476 0.32122928 0.30272132 0.26899248
0001c0 7a c5 0b 3f 12 9f c3 3e 4a b0 b4 bd 5a 21 29 3d
       0.545982 0.382073 -0.08822687 0.041291572
0001d0 be 9d 1f 3d e0 44 da 3d ec 3d 31 be b2 23 17 3f
       0.038968794 0.10657668 -0.17308778 0.5903884
0001e0 48 cd 06 3d 20 4f a4 3d 0c b9 9f be bc 03 3d 3d
       0.032910615 0.080229044 -0.31195867 0.04614614
0001f0 b9 c1 a1 3d ca a8 99 3e 67 96 ec be 48 57 d8 be
       0.07898278 0.30011588 -0.46208498 -0.4225409
000200 c9 6d c1 3d e9 86 b5 3b 60 56 5a 3d fd b4 ce 3e
       0.09444768 0.005539764 0.05330503 0.40372458
000210 9e 98 2a 3f 44 af 9e bc 01 7d c3 3d 5c 34 e3 3a
       0.66639125 -0.019370683 0.09545327 0.001733433
000220 2a e5 5d 3e b7 22 f6 3e 63 cc 0b 3f f4 88 e6 3e
       0.2166945 0.4807336 0.54608744 0.45026362
000230 fd e3 f5 be 05 f9 08 bf 6b c1 cc 3d aa d9 94 bc
       -0.48025504 -0.53504974 0.09997829 -0.018170197
000240 d3 d4 ce bd 93 0b 5f 3c 38 f8 5c 3d 03 14 d9 be
       -0.10099187 0.013613599 0.053947657 -0.4239808
000250 0d 03 2b 3e fc 7c 1b bf e9 81 81 3f 22 6f a4 bd
       0.16700383 -0.60737586 1.011777 -0.080290094
000260 d0 23 1e bf 6e 7c 08 3f 70 ad 1c 3e ab 09 59 39
       -0.61773396 0.53314865 0.15300536 0.00020698334
000270 d2 6b 70 bd 9d 25 cc 3d e0 ef ec be aa 29 7a be
       -0.058696575 0.09968112 -0.4627676 -0.24429956
000280 be 27 30 3e 10 07 a8 3d 18 29 20 ba 82 03 43 be
       0.1720266 0.08204472 -0.0006109639 -0.19044307
000290 91 63 32 3f 03 96 a3 3d 66 88 08 be c6 ea bf 3c
       0.69683176 0.07987597 -0.13333282 0.023427378
0002a0 75 d6 31 3d 4c 0b 19 3f cd aa 42 bd 90 bc 56 bf
       0.043417413 0.5978286 -0.04752617 -0.83881474
0002b0 7b e6 cd be 20 0d 1a 3f 70 ca ba bd c4 4b c8 bb
       -0.40214905 0.6017628 -0.09120643 -0.0061125476
0002c0 22 07 40 3e 3f 56 ee 3e 35 bb 99 3d b7 12 21 3d
       0.18752721 0.46550176 0.0750641 0.03932449
0002d0 24 f9 ef 3d 2c 37 43 3e a1 2a f5 3e 76 e8 da be
       0.11717442 0.19064015 0.47884086 -0.4275548
0002e0 92 14 a3 3b 7b 54 6c be b6 ee c3 3d a6 aa f6 39
       0.0049768174 -0.23079102 0.09567015 0.0004704792
0002f0 bd a5 a7 3d eb 2c 1e 3e 6a c3 3e bd ce f6 1b bf
       0.08185909 0.15446822 -0.04657308 -0.6092347
000300 d9 02 59 3e 9a 84 30 bf 0e 94 b4 3e fa d4 5d bf
       0.21192493 -0.68952334 0.35269207 -0.866531
000310 8f 38 e5 3d 6c 1e 27 bc d0 09 01 be c1 a0 47 3c
       0.11192428 -0.010200124 -0.126014 0.012184323
000320 d0 98 18 bd 15 60 87 bd c5 95 81 3e 3a 6e b8 3e
       -0.03725511 -0.06610123 0.25309578 0.36021596
000330 cc 70 67 3e 2f 4b 77 bf d2 6e 38 be 38 27 94 3c
       0.22601622 -0.96599096 -0.18011025 0.018085107
000340 c7 0e 0c bf 7d e3 2d bf 9b 98 41 3c 92 19 f4 3e
       -0.5471005 -0.67925245 0.011816169 0.4767576
000350 64 7a 01 3f 38 8d df 3e 2f b7 90 be bb ce 3f 3f
       0.5057738 0.4366243 -0.28264758 0.7492482
000360 88 63 df 3d 57 01 d9 bd bd e6 da 3d 17 97 13 bf
       0.10907656 -0.10595959 0.10688541 -0.5765242
000370 9f 58 65 3e 31 64 e9 bc 04 cd 97 bc 9b 11 de 3d
       0.22397088 -0.028490158 -0.018530376 0.10843202
000380 0d af f5 3e 69 7d 08 bf e1 88 cf 3c 85 c6 06 be
       0.47985116 -0.5331636 0.025333824 -0.13161667
000390 33 8a cf bd 04 79 3b bd 55 0d a6 3d 69 88 a9 3d
       -0.10133781 -0.045769706 0.08108012 0.08277971
0003a0 9f 5b 00 bf b1 04 87 be 58 ce 3f 3f 5e 87 f2 3d
       -0.501398 -0.26370767 0.7492423 0.118422255
0003b0 25 4c eb 3e d6 5c ad 3e 70 32 08 3d ab 35 4d 3f
       0.4595653 0.3385989 0.033251226 0.80160016
0003c0 63 c5 ac bd d9 05 06 3d b3 61 af 3e ef ab 80 be
       -0.08436086 0.03272042 0.34254226 -0.25131175
0003d0 67 ab 65 3f b8 d5 c5 be 6c 95 52 bf 7f a6 6b 3e
       0.89714664 -0.38639617 -0.8225925 0.23012732
0003e0 46 0c 83 be 33 a3 90 3e 9a 8c 91 3c c4 c6 cc bd
       -0.255953 0.2824951 0.01776724 -0.09998849
0003f0 f6 37 26 3c a2 90 f5 bd b3 2b cf 3d 66 3b 4e 3e
       0.010145178 -0.11990477 0.10115757 0.20139846

func.net.0.bias f4 [128]
000000 2e 8a be 3f b0 da 91 3f 55 02 bb 3e e2 82 01 bd
       1.4885919 1.1394863 0.36525217 -0.03161896
000010 1f 47 f2 3d e0 34 2a bf 92 a7 5d be bc a6 cc bf
       0.118299715 -0.6648693 -0.21645954 -1.5988383
000020 26 b4 49 3e e4 7c 9e 3e e0 12 3c 3f 13 cb 6a bf
       0.19697627 0.3095466 0.734663 -0.91716117
000030 d4 8e 3b 3f 2f b5 07 c0 08 ed 63 3e a4 20 53 bf
       0.73264813 -2.1204336 0.22258389 -0.8247168
000040 77 f7 d3 bf 8c a2 95 3f ee 27 0e bf 27 76 40 3f
       -1.6559895 1.169023 -0.5552968 0.75180286
000050 53 29 b0 bf 4d 5b df be 39 58 09 bf 9d b3 d1 3f
       -1.3762611 -0.43624344 -0.5365024 1.6382939
000060 57 86 46 be 5e 73 93 bf 1d e9 7f 3f 1b 27 32 bf
       -0.19387184 -1.1519582 0.9996508 -0.6959092
000070 97 34 b1 3d 2d 18 b7 3e b8 ba 3a 3f f5 d6 a7 3e
       0.08652609 0.35760632 0.7294116 0.32781187
000080 67 a5 60 bf 9f 7f 33 bf 5a a4 64 bd 19 4f e4 3e
       -0.87752384 -0.7011661 -0.0558208 0.44591597
000090 c1 94 93 be 9b 1c b5 bd ed 91 e1 bf 9b 30 97 bf
       -0.28824428 -0.08843347 -1.7622658 -1.1811708
0000a0 21 9a 80 3f 11 f0 05 40 9f b7 65 3e bc 99 f5 be
       1.0047036 2.0927775 0.22433327 -0.47968853
0000b0 37 75 89 bd 75 21 33 be d0 4a cc be fa 36 18 c0
       -0.0671181 -0.17493232 -0.39900827 -2.3783555
0000c0 56 db 3c bf fb fe 54 bf b4 0d de 3d fe 13 a7 bf
       -0.7377218 -0.8320157 0.108424574 -1.3052976
0000d0 bc d1 01 3f 3a c7 a6 3d da 7e 59 3e c7 3d 99 3e
       0.50710654 0.08143468 0.21239796 0.29929945
0000e0 4a 0c 8e 3e bf b1 42 3f d9 b5 22 3f cc 9b ea 3d
       0.2774375 0.7605247 0.6355873 0.11455497
0000f0 fd bb 49 3c e9 58 ec bf 9e f7 f0 bf 36 da 13 bf
       0.012312886 -1.8464633 -1.8825567 -0.5775484
000100 93 d1 28 bf d4 e4 60 3f 36 72 27 be 8c bf 87 bf
       -0.65944785 0.87849164 -0.16352162 -1.060533
000110 4a 5a 6c 3f 2a 8d 4d 3f 23 fd 80 bf 98 79 80 3c
       0.9232527 0.80293524 -1.0077251 0.01568298
000120 92 64 8b 3f 42 42 da 3e ad a1 4f 3d 24 93 80 bd
       1.0890067 0.42628676 0.050691295 -0.06278065
000130 50 54 03 3e f4 a2 dd 3e bf 67 6d bf 34 af d5 bd
       0.12825131 0.43288386 -0.9273643 -0.10433808
000140 e6 1c 1f 3f d6 54 eb 3f 9f 2f a4 bd fb 38 27 bf
       0.6215347 1.8385265 -0.080168955 -0.6532132
000150 eb c5 5a be dd a8 95 3f be 08 90 3d 44 d5 61 3f
       -0.21364562 1.1692158 0.070329174 0.8821604
000160 aa 6b ae bf 8d 9f 9f bf af 5e f5 3f 97 88 4a be
       -1.3626606 -1.2470566 1.916952 -0.19778667
000170 8c 48 08 40 81 80 19 bf 5d e7 ae 3f 06 8c 75 3f
       2.129428 -0.59961706 1.3664356 0.95916784
000180 76 22 79 3e ff 91 82 be 64 43 af bf 10 0e cd 3f
       0.24329552 -0.2550201 -1.3692441 1.6019917
000190 9b 74 d4 3e f8 21 07 3d c6 1c da bd 03 77 b7 be
       0.41495213 0.03299138 -0.10650019 -0.35832986
0001a0 84 94 4f bf 9e 0f 17 bf d8 7c 17 3f 41 e5 6c 3e
       -0.8108599 -0.59008205 0.5917487 0.23134328
0001b0 9f f2 89 3e 16 34 be bd 8a 37 6d 3f bc fd 92 3f
       0.26942918 -0.09287278 0.9266287 1.1483684
0001c0 72 43 0f 3d 40 7b c6 bf af 62 65 3f ef 83 da bf
       0.03497643 -1.5506363 0.89603704 -1.7071513
0001d0 a4 2f 2a be c7 d9 1d bf d1 dd 8b 3e f3 3e 1e 3f
       -0.16619736 -0.61660427 0.2731767 0.618148
0001e0 2e 0d 95 be 78 31 00 be fe 03 b8 be 3e 9e 9d 3e
       -0.29111618 -0.12518871 -0.35940546 0.30784792
0001f0 d0 f6 05 3e 7a 95 80 bf e0 87 a0 bf 7d ae dc bf
       0.13082433 -1.0045617 -1.2541466 -1.724075

func.net.2.weight f4 [2, 128]
000000 7b 4d cc 3b 99 5c a1 3d ed 67 d1 3d 00 e9 8b bd
       0.0062348223 0.0787899 0.102249004 -0.068315506
000010 aa 0c cd bd 62 09 1a be df a1 b9 3c 91 f7 bd 3e
       -0.10012181 -0.15042642 0.022660194 0.3710294
000020 c4 23 6d bd c3 ce 43 bc e2 c3 d6 bc f2 77 0d be
       -0.057895437 -0.011951151 -0.026216451 -0.13815287
000030 cd 7c d1 3c 76 01 29 3f 5e 13 b4 3d 70 53 50 be
       0.025572205 0.66017854 0.087927565 -0.20344329
000040 72 55 57 3f 3f e8 97 be c8 72 55 3c 8c eb 8c bd
       0.84114754 -0.29669377 0.013027854 -0.068808645
000050 60 86 1b bf 38 13 16 bf 6d f6 86 3c 7a 7e 14 bf
       -0.60751915 -0.58623075 0.016474927 -0.5800549
000060 25 48 16 3e 5b 5a 01 3f a1 34 9b 3e 65 b5 d4 bc
       0.14675958 0.50528497 0.3031359 -0.025965402
000070 1b 21 ac 3d 3d 1e 22 3f c3 32 a8 bd d0 da b0 bc
       0.08404752 0.6332739 -0.08212807 -0.021588713
000080 87 74 09 be 7b 5d dd 3c 70 d2 24 3d d4 01 6c bd
       -0.13423358 0.027022114 0.04023975 -0.05761893
000090 db 63 54 3c 8c 2c d1 3d 20 27 aa be 14 06 09 be
       0.0129632605 0.10213575 -0.33232975 -0.13381225
0000a0 b9 c2 ba 3e 6a e6 1b 3f 3e 21 6e bd cd c7 ce bd
       0.36476687 0.6089846 -0.05813717 -0.10096703
0000b0 ef 64 92 bd cd 62 4c 3d 95 1c 95 3d 8f 93 3e bf
       -0.07148158 0.04989891 0.07280842 -0.74443907
0000c0 15 42 f5 bd d5 de bb be cd 65 29 bd 47 45 03 3f
       -0.11975495 -0.36693445 -0.04135685 0.51277584
0000d0 fe b1 c6 bd ce f4 a0 3d 3d 80 e0 3d cf ea 01 3d
       -0.09701918 0.07859193 0.109619595 0.03171807
0000e0 78 b4 c0 3d 5a 89 bb be ba 35 e3 be 49 a3 99 bd
       0.09409422 -0.36628228 -0.44376928 -0.07501847
0000f0 84 0b 7a be 1e 38 33 3e 2d b4 c2 be 49 6e 47 bd
       -0.24418455 0.17501876 -0.38028088 -0.04868916
000100 43 72 c5 bd c0 82 69 3a b5 fd 5a 3d c9 09 3d be
       -0.09640934 0.0008907728 0.05346461 -0.18460764
000110 3b 2d 7a 3d ab 5a 85 3d 5e d4 c4 bd 4c 8a 92 3d
       0.06107829 0.06511434 -0.09610818 0.07155284
000120 d6 fe 56 bc 76 f6 0f 3e c2 d9 5d 3d 09 25 2d 3d
       -0.013122281 0.14058861 0.05416275 0.042271648
000130 88 53 ae bd 9a 8b 9a bd d1 bf 83 bf a5 f6 3b bd
       -0.08512026 -0.07546158 -1.0292913 -0.045889515
000140 01 03 91 be d7 c1 07 3f b4 19 8e bc ae 3a 63 bd
       -0.28322604 0.5303015 -0.01734624 -0.055475883
000150 ca cc 10 bd 76 d4 25 3e 20 6c 73 bc 3c 08 3c 3e
       -0.035351552 0.16194329 -0.014857322 0.18362516
000160 c5 d9 a2 be a7 fa f6 be cc cf ee be 25 20 9d 3c
       -0.3180677 -0.48238108 -0.4664291 0.019180367
000170 0b 8a 39 3f 5a 8c 87 3b 8b df 18 bf 5b 44 2a 3e
       0.7247626 0.0041366043 -0.597161 0.16627638
000180 69 c8 9a 3d 86 ad ca 3c 02 d9 b5 bd 59 2f 98 3d
       0.075577565 0.024740946 -0.088792816 0.07430906
000190 4b 5b 1d 3f cc e6 7d 3c cc 9d a7 3c 52 a4 29 bc
       0.61467427 0.015496921 0.020460986 -0.010354118
0001a0 a4 23 b4 bd 49 7c 5f be bb 82 f6 3d 9e d1 a7 3d
       -0.087958604 -0.21824755 0.120366536 0.08194278
0001b0 d7 94 0a 3e db aa 39 3c d7 f3 0b bf 52 32 3a bf
       0.1353334 0.011332239 -0.54668945 -0.7273303
0001c0 91 3c 02 3e 77 86 26 3f 82 57 72 3e 68 9b d8 be
       0.12718417 0.6504893 0.23666194 -0.42306066
0001d0 48 40 7a bd e1 7a a1 3c 72 87 b6 b9 67 e9 c5 bd
       -0.06109646 0.019711914 -0.0003481466 -0.096636586
0001e0 f4 a2 aa be eb 7f 1b 3d 7f ef c1 3d 7b f3 8b bd
       -0.33327448 0.03796379 0.094695084 -0.068335496
0001f0 01 fd 15 be e4 9a 49 3f bc ca 42 3f 59 54 a5 be
       -0.14647295 0.7875197 0.760906 -0.32290915
000200 86 c9 07 3e 6d 0d 7b 3c 33 50 68 3d ea c0 23 3c
       0.13260469 0.015323025 0.05671711 0.009994725
000210 1e 40 b8 3c 79 76 4f be 8a 72 26 3c ea 0b 00 3f
       0.022491511 -0.20260037 0.010159144 0.5001818
000220 cc 7b 15 be 2e aa 04 3c b1 a7 15 3e e9 4a 0e bc
       -0.14598006 0.008097215 0.1461475 -0.008684852
000230 4c f5 dc 3d c6 28 b5 be 91 a2 e8 bd 7a cd 43 3c
       0.10788974 -0.3538267 -0.11359132 0.011950845
000240 d4 71 8f bd 47 6e 8e be 03 a5 ef bc 2d fa bb bb
       -0.07004133 -0.2781851 -0.029253488 -0.0057366104
000250 88 c4 d7 bd 26 5c e8 bc a3 ae 21 3e fe 1b b0 3d
       -0.10535532 -0.028364252 0.15789275 0.08599089
000260 0d f3 fe 3d b4 10 00 be 99 75 e1 be 3e e3 93 3c
       0.12448702 -0.12506372 -0.44035032 0.018052693
000270 23 15 31 3d a5 7a f9 3d 04 0a e8 bc 2a 7d 09 bd
       0.04323305 0.12181596 -0.028325088 -0.03356663
000280 54 94 b0 bd d8 0e ff 3d 8f 2b 4e ba 53 50 af 3c
       -0.08622041 0.12454003 -0.0007864767 0.021400606
000290 72 ea b2 3e ef b7 a9 3d f9 33 67 3c 37 a3 a6 be
       0.34944493 0.08287036 0.014111512 -0.32546398
0002a0 1d f6 58 bf bd 67 28 bb 66 9a 28 bf b5 f9 26 3d
       -0.8475054 -0.0025696598 -0.65860593 0.040765483
0002b0 0a b1 9f bc e5 df 3b bd f3 fc 8f 3d b8 32 51 3d
       -0.019493598 -0.04586782 0.07030668 0.05107376
0002c0 c9 35 38 3d 0c 03 a9 3e c5 e8 6c bb a4 c8 2b 3e
       0.04497317 0.33010137 -0.0036149484 0.16775757
0002d0 26 70 f1 3d 6f 7f 9f bc 40 f2 b4 bc 85 0f e6 3d
       0.11788969 -0.019469945 -0.02208817 0.11233429
0002e0 c6 c1 f9 bc 65 f4 98 be 6f 03 e3 3c fb 44 cc bb
       -0.030487906 -0.29873958 0.027711598 -0.006233809
0002f0 51 47 48 3c 73 cd 8f bf 2c ac fe 3d 5d b9 45 bd
       0.012224034 -1.1234573 0.12435183 -0.04827248
000300 4a 04 43 3f d6 15 09 3e 79 43 9d 3b 56 8f 54 3f
       0.7617842 0.13387236 0.004799303 0.83031213
000310 bb 13 4b 3e 57 8e 31 bd 67 c5 96 bc 94 34 2f 3e
       0.19831745 -0.043348636 -0.018404676 0.171099
000320 41 e2 df be 9a c7 c5 bc 03 80 51 3d 61 3f 07 bd
       -0.43727306 -0.024143029 0.051147472 -0.033019427
000330 ff 8f 20 bd ab 75 a7 3e 01 8d 83 be 70 ba 32 bd
       -0.039199825 0.3270696 -0.25693515 -0.043634832
000340 05 bb 53 3e d3 1c ad bb 05 77 98 3d 4a 20 e8 bd
       0.20676811 -0.005282977 0.07444576 -0.11334284
000350 35 49 16 3d 37 2a 15 3d d6 5a d5 bd db fe 3c bf
       0.03669091 0.036417212 -0.10417716 -0.7382638
000360 47 2d 69 bd 5e 28 2d 3f 4b ef 7d 3e 9f c6 8f bc
       -0.056927945 0.6763972 0.24798314 -0.017550765
000370 20 e5 32 3b 60 bc 48 3f a2 0b 4a 3e 3c 0e 3f 3c
       0.0027297214 0.7841244 0.19731 0.011661109
000380 54 05 81 3c 1c f0 86 3d de 75 5c 3f 19 5e 6e bf
       0.015749611 0.06588766 0.8611735 -0.9311233
000390 34 6d 00 be e7 18 44 3e 27 66 7e 3d d9 01 f1 bd
       -0.12541658 0.19150124 0.06210914 -0.117679305
0003a0 a9 24 61 3d 92 b4 83 bd 9d c9 34 bd 98 56 c1 bc
       0.054966602 -0.064309254 -0.044137586 -0.023600861
0003b0 88 5c 82 3d 47 a5 82 3c 47 7b a3 3f b8 77 46 be
       0.06365305 0.015947951 1.2771996 -0.19381607
0003c0 15 ae 22 bd 28 55 68 3e 07 c2 96 be 9a 38 e7 3e
       -0.0397168 0.22688735 -0.29444906 0.4516037
0003d0 96 0f 9e bc 21 f5 98 3d 06 64 6f 3d 60 54 6a 3d
       -0.019294541 0.0746863 0.058445 0.057209373
0003e0 65 64 89 be 63 ea 2d 3d 4f 1d dd bc cb ae 3f bc
       -0.26834407 0.042459857 -0.026991514 -0.011699389
0003f0 61 03 28 bd da 61 64 3e 94 b0 0f 3e 74 e0 22 3e
       -0.041018847 0.22302952 0.14032203 0.15905935

func.net.2.bias f4 [2]
000000 3e cb 97 3d 1b 52 a3 3c
       0.07411812 0.019936612
