ControlSynth_Neural_ODE/preliminary_experiment_example/neural_ode_noised1.pth (torch, 20399 bytes, 6 tensors)

func.net.0.weight f4 [64, 2]
-0.0078722425 -0.16651554 0.21092662 0.91255736 0.044065576 -0.05956578 -0.09218874 0.024526421
-0.30457902 0.71013296 -0.00043308313 0.11864458 0.025178619 0.8651345 -0.5173431 -0.35236293
-0.42472807 -0.3413391 -0.049987875 -0.7871491 0.56202275 -0.060611352 -0.26943278 0.8713344
0.08321687 0.87586313 -0.09169476 -0.06424135 0.07309688 0.012753614 0.4127076 -0.49620146
0.042975225 0.16811576 0.031232344 -0.09151884 0.43724594 0.30331326 -0.46844643 0.2404713
-0.21579215 0.8908945 0.0096148 -0.13713971 -0.06712824 -0.016116893 -0.0841913 -0.022629937
0.23718026 -0.06837077 0.2994821 0.9248576 -0.67259145 0.46844396 0.3106165 -0.83310217
-0.1571818 -0.77161825 0.49730498 -0.6236966 -0.18387365 0.6115598 -0.021904696 -0.7881682
0.23164238 0.5238326 0.005113469 -0.09415817 -0.0142166205 0.06401831 -0.013803534 -0.68341625
0.28065273 -0.5147708 -0.25403383 -0.06818493 0.49650666 0.43785506 -0.32582605 0.1596497
-0.39171937 0.24605277 -0.039970208 -0.1403045 0.04548639 0.14399193 0.0066267005 -0.111410424
0.22650424 0.047687717 0.08098717 -0.04252231 0.27142128 0.06250295 -0.04908486 -0.6825765
0.0695522 0.0065685683 -0.17795217 0.2665955 0.19347312 0.4394438 -0.13376679 -0.97363925
0.22758168 -0.71968263 -0.07916203 0.012511818 0.59311056 -0.018807929 -0.07576027 -0.0071995757
-0.2684275 -0.77350837 0.049650636 0.088215314 0.07792635 0.0135665145 0.40646693 0.63858855
0.05270554 0.8964777 0.37518713 0.09727489 0.24482712 0.50728744 0.056446634 -0.39302886
00000000: 94fa 00bc 0d83 2abe 26fd 573e 5c9d 693f
00000010: 1b7e 343d 3ffb 73bd 73cd bcbd a2eb c83c
00000020: c8f1 9bbe 46cb 353f 6f0f e3b9 eefb f23d
00000030: 6443 ce3c 7479 5d3f 9970 04bf ea68 b4be
00000040: f575 d9be 00c4 aebe 16c0 4cbd 9a82 49bf
00000050: b9e0 0f3f 9c43 78bd 18f3 89be c50f 5f3f
00000060: 9b6d aa3d 9138 603f 76ca bbbd f890 83bd
00000070: d1b3 953d 89f4 503c 694e d33e 1e0e febe
00000080: ca06 303d 8a26 2c3e f9da ff3c 3b6e bbbd
00000090: b3de df3e e04b 9b3e 36d8 efbe 1c3e 763e
000000a0: 9ef8 5cbe a911 643f 6587 1d3c 5a6e 0cbe
000000b0: 887a 89bd 9307 84bc 7d6c acbd 6b62 b9bc
000000c0: 62df 723e f905 8cbd b855 993e 78c3 6c3f
000000d0: f42e 2cbf e3d7 ef3e 2009 9f3e 2f46 55bf
000000e0: 44f4 20be c688 45bf c29e fe3e 95aa 1fbf
000000f0: 6049 3cbe 2f8f 1c3f 7a71 b3bc 64c5 49bf
00000100: a933 6d3e e519 063f e38e a73b 00d6 c0bd
00000110: d4ec 68bc 081c 833d 3828 62bc 5ef4 2ebf
00000120: b7b1 8f3e 05c8 03bf b910 82be 8aa4 8bbd
00000130: 1f36 fe3e 8a2e e03e acd2 a6be 367b 233e
00000140: 718f c8be 42f5 7b3e cdb7 23bd fcab 0fbe
00000150: f04f 3a3d 9f72 133e cb24 d93b 262b e4bd
00000160: baf0 673e 3254 433d 9adc a53d e02b 2ebd
00000170: bbf7 8a3e 8c01 803d 350d 49bd 55bd 2ebf
00000180: 6271 8e3d 253d d73b 1839 36be 357f 883e
00000190: d11d 463e c7fe e03e 29fa 08be 6c40 79bf
000001a0: 2c0b 693e 1f3d 38bf b41f a2bd 5efe 4c3c
000001b0: 18d6 173f 1613 9abc 3328 9bbd 6bea ebbb
000001c0: 546f 89be a504 46bf 775e 4b3d 3baa b43d
000001d0: da97 9f3d 1646 5e3c 6f1c d03e 8a7a 233f
000001e0: c4e1 573d 907f 653f 8718 c03e 0f38 c73d
000001f0: f6b3 7a3e 97dd 013f 9634 673d 143b c9be

func.net.0.bias f4 [64]
1.620318 -0.7422004 -0.552873 0.2521475 0.6216719 -0.7157297 0.49642992 -0.23396301
0.8819695 0.020624947 0.32318544 -0.61720604 0.09917041 -0.7455821 -0.42826948 -0.61025244
1.5832634 -1.0066313 0.33034825 -0.37518492 0.15723318 1.1605233 0.3335814 0.7190107
1.2578245 0.079346515 0.09632627 -0.26741737 0.41164768 -0.8522069 0.34531724 -0.44256523
-0.15481575 -0.7393926 0.011821746 -0.6220225 -0.7017057 -1.5672511 -0.5288485 0.7779783
0.44786116 -1.1752193 1.1926571 0.5933081 -0.3247554 -0.61564994 0.26331803 0.6767676
-0.0052061244 0.38767484 0.22492562 -0.5169785 -0.57975596 0.20350581 0.3804058 0.40893027
0.61845416 0.46961817 -0.528801 0.32604736 -0.6961689 -0.54761076 -0.662099 -0.3893758
00000000: 9566 cf3f d800 3ebf 1689 0dbf 7a19 813e
00000010: e425 1f3f 103a 37bf 102c fe3e 0094 6fbe
00000020: c1c8 613f a6f5 a83c 9078 a53e 3701 1ebf
00000030: db19 cb3d 78de 3ebf 2346 dbbe 8139 1cbf
00000040: 60a8 ca3f 4bd9 80bf 6823 a93e 3d18 c0be
00000050: bc01 213e 078c 943f 2ecb aa3e 1611 383f
00000060: 6500 a13f 6d80 a23d b546 c53d eeea 88be
00000070: 7cc3 d23e 3b2a 5abf 6ccd b03e e997 e2be
00000080: 0588 1ebe d548 3dbf ffaf 413c de3c 1fbf
00000090: fca2 33bf af9b c8bf 9e62 07bf 9629 473f
000000a0: 0f4e e53e 966d 96bf fda8 983f 0ae3 173f
000000b0: 5746 a6be 3c9b 1dbf 9fd1 863e a440 2d3f
000000c0: 2398 aabb 517d c63e e752 663e b458 04bf
000000d0: e36a 14bf d463 503e 8dc4 c23e 4f5f d13e
000000e0: 0353 1e3f cb71 f03e 815f 07bf aeef a63e
000000f0: 2038 32bf 3830 0cbf 527f 29bf 445c c7be

func.net.2.weight f4 [64, 64]
-0.06334861 0.012176463 0.08609022 -0.06330752 0.0010748332 0.075368814 -0.013801813 -0.17784354
-0.12773323 -0.07723613 0.08064466 0.029065602 -0.09554277 -0.1631223 0.091649055 -0.020249957
-0.0889325 0.2070368 0.07128795 -0.13744108 -0.14182259 -0.026762344 -0.15443611 -0.48027903
0.14715137 0.114529915 -0.1481087 -0.06667869 0.0015910054 0.18894795 0.07354598 -0.05063743
0.08903452 0.16480699 0.03016824 0.09663665 -0.073800616 -0.11884362 0.09433208 -0.086888835
-0.11339088 0.18689486 -0.10388025 -0.24585705 0.029990705 0.23539077 0.17345518 0.1141002
0.069648236 -0.15744896 0.076629475 0.024000097 -0.0747559 -0.24834915 -0.008493291 -0.30640325
-0.022705406 -0.12832657 0.14498387 -0.010923721 0.09864143 0.09438535 0.28781706 -0.03529667
-0.4038604 0.35716984 -0.051983777 -0.009999171 -0.12024868 0.26810113 0.16422117 -0.18900667
-0.31251842 0.016446123 -0.05308312 0.1438314 -0.021828588 0.011069316 0.11480557 0.1476638
-0.0033169829 0.15151806 0.06251654 -0.07530556 0.027896656 -0.32311562 -0.14986524 -0.45944872
-0.06829348 0.29458132 -0.00218666 0.012362293 -0.008198607 0.103983074 0.055487808 -0.2554532
0.11704249 0.08692641 0.04770933 0.08631259 0.15279132 -0.08676431 0.2579766 -0.15922058
0.05412744 -0.002783073 0.13999885 -0.22183722 0.14877266 -0.06144462 0.11622971 0.107836165
-0.015299142 -0.001872508 0.08231175 -0.22873025 0.07808543 -0.20977429 0.15276569 -0.16182762
-0.022784645 -0.044599302 0.14956307 0.21903531 -0.19907531 0.19705617 0.065149434 -0.07822581
-0.2872419 0.031519417 0.1026103 -0.030131854 -0.12566131 0.11593601 0.03363224 -0.14061145
-0.19047312 0.11367178 -0.009825453 0.0778343 -0.110539086 -0.09560672 0.25948578 0.17463069
0.055638913 0.097654834 0.086892046 -0.12729132 0.08233023 -0.06967156 -0.097473405 -0.38871
0.044027075 -0.003708765 0.06902665 -0.06955814 -0.1380951 0.032143082 -0.07132191 -0.06609785
0.037897382 0.16444105 -0.06722572 0.0785729 0.09776751 -0.10270452 0.029380403 -0.1081268
-0.18541984 0.0074606505 0.07059882 -0.0882966 0.27697742 0.15544756 0.103291854 0.097856045
0.20981392 -0.024990823 0.1538119 -0.090832844 -0.05569365 -0.30333674 0.15472938 -0.3369397
0.0129695255 -0.042699102 0.1764382 0.15131424 -0.13211052 0.21868296 0.0035666826 -0.03295259
-0.29399562 0.14150904 -0.25867063 0.08027107 0.12321384 -0.20278782 0.0627581 -0.11967358
-0.051732395 0.0077279853 -0.028448615 0.042757045 -0.056067664 0.2914444 -0.4283018 -0.07018755
-0.075537905 -0.19682765 0.083199024 0.07384554 0.009759842 -0.14198855 0.37214747 0.1733809
-0.3884914 -0.033484526 -0.010622638 -0.13417181 -0.019221906 -0.16483776 0.05862208 0.043460045
0.12721787 -0.058944646 0.13332653 0.002094286 -0.084859915 0.60757875 0.010908428 0.17941092
0.01923411 0.020909514 -0.1085069 0.07157466 -0.16602574 -0.06977041 -0.09177708 -0.18808348
-0.24143378 -0.0040964596 -0.07715094 0.032497108 0.085274346 0.33217248 0.1686592 0.45923996
0.013058866 0.026099678 -0.088468105 0.04761522 -0.056180272 -0.054508537 0.045839354 -0.0039858557
00000000: ebbc 81bd ca7f 473c 1250 b03d 5fa7 81bd
00000010: 6be1 8c3a f75a 9a3d 0021 62bc 9e1c 36be
00000020: 80cc 02be fa2d 9ebd 0729 a53d fc1a ee3c
00000030: eeab c3bd 8809 27be 80b2 bb3d 3de3 a5bc
00000040: 3e22 b6bd 7401 543e 6bff 913d 5bbd 0cbe
00000050: f139 11be b43c dbbc 8024 1ebe 22e7 f5be
00000060: d9ae 163e a98e ea3d cfa9 17be d68e 88bd
00000070: 4889 d03a 927b 413e 469f 963d 3269 4fbd
00000080: bb57 b63d 2ac3 283e 6323 f73c 70e9 c53d
00000090: c724 97bd 4964 f3bd 2d31 c13d c6f2 b1bd
000000a0: 7a39 e8bd 5e61 3f3e 2bbf d4bd f3c1 7bbe
000000b0: 11af f53c 470a 713e 3c9e 313e 5ead e93d
000000c0: bca3 8e3d 4d3a 21be eaef 9c3d da9b c43c
000000d0: 9f19 99bd 3d4f 7ebe 7227 0bbc e3e0 9cbe
000000e0: b000 babc 0a68 03be a776 143e 68f9 32bc
000000f0: 8504 ca3d 1b4d c13d c25c 933e 3e93 10bd
00000100: cac6 cebe f7de b63e f1ec 54bd 90d3 23bc
00000110: f144 f6bd 8d44 893e 9829 283e f78a 41be
00000120: 6a02 a0be 05ba 863c b06d 59bd 8a48 133e
00000130: ded1 b2bc 145c 353c 2f1f eb3d 2e35 173e
00000140: bd61 59bb 8d27 1b3e ac08 803d cd39 9abd
00000150: 8787 e43c 696f a5be 4676 19be dd3c ebbe
00000160: 74dd 8bbd 5dd3 963e 114e 0fbb 378b 4a3c
00000170: 7353 06bc 14f5 d43d 2f47 633d c3ca 82be
00000180: f9b3 ef3d 7906 b23d dc6a 433d a8c4 b03d
00000190: 5475 1c3e 7db1 b1bd 8215 843e b80a 23be
000001a0: bcb4 5d3d 3864 36bb dc5b 0f3e 4c29 63be
000001b0: dc57 183e 5bad 7bbd d809 ee3d 35d9 dc3d
000001c0: 41a9 7abc f16e f5ba 1093 a83d 4338 6abe
000001d0: 41eb 9f3d 12cf 56be 9c6e 1c3e 24b6 25be
000001e0: dda6 babc c2ad 36bd 1027 193e cb4a 603e
000001f0: 66da 4bbe 18c9 493e 116d 853d da34 a0bd
00000200: 5f11 93be 811a 013d 5925 d23d 14d7 f6bc
00000210: 5cad 00be dc6f ed3d f6c1 093d 73fc 0fbe
00000220: 630b 43be c0cc e83d f0fa 20bc 9767 9f3d
00000230: 5162 e2bd 75cd c3bd 52db 843e 63d2 323e
00000240: a1e5 633d 42ff c73d 75f4 b13d a858 02be
00000250: c09c a83d f6af 8ebd 23a0 c7bd ff04 c7be
00000260: bc55 343d c00e 73bb d85d 8d3d 8074 8ebd
00000270: cd68 0dbe 77a8 033d 3911 92bd 4f5e 87bd
00000280: 493a 1b3d 3c63 283e a3ad 89bd d4ea a03d
00000290: 553a c83d bf56 d2bd 2caf f03c 9571 ddbd
000002a0: b3de 3dbe 7978 f43b 1d96 903d d9d4 b4bd
000002b0: fccf 8d3e a52d 1f3e ae8a d33d c068 c83d
000002c0: 76d9 563e 8eb9 ccbc de80 1d3e 9206 babd
000002d0: 061f 64bd f44e 9bbe 6171 1e3e 5c83 acbe
000002e0: 227e 543c 41e5 2ebd 37ac 343e 1ff2 1a3e
000002f0: fb47 07be 6dee 5f3e 01bf 693b 4cf9 06bd
00000300: 9886 96be bfe7 103e 7a70 84be 2965 a43d
00000310: 8a57 fc3d 9ca7 4fbe 5287 803d 6c17 f5bd
00000320: 59e5 53bd 0a3b fd3b 120d e9bc 0322 2f3d
00000330: 35a7 65bd 3338 953e 604a dbbe 7dbe 8fbd
00000340: 9eb3 9abd 308d 49be 4064 aa3d 553c 973d
00000350: bfe7 1f3c 7265 11be 1d8a be3e c38a 313e
00000360: 58e8 c6be 1227 09bd 930a 2ebc 5664 09be
00000370: 4277 9dbc 3bcb 28be b51d 703d 2903 323d
00000380: 6745 023e f16f 71bd c086 083e 4a40 093b
00000390: 09cb adbd 488a 1b3f 43b9 323c 7fb7 373e
000003a0: da90 9d3c 6e4a ab3c de38 debd bc95 923d
000003b0: a702 2abe cae3 8ebd 9ff5 bbbd f598 40be
000003c0: 6b3a 77be 983b 86bb 5001 9ebd b01b 053d
000003d0: 51a4 ae3d 8312 aa3e ffb4 2c3e 8021 eb3e
000003e0: dbf4 553c fece d53c c42e b5bd 2d08 433d
000003f0: 491d 66bd 5844 5fbd 0cc2 3b3d c89b 82bb

func.net.2.bias f4 [64]
0.021012925 0.108250655 0.05017133 0.29242125 0.0784978 0.15552226 0.13495187 0.037509892
0.11829978 0.18366061 0.15467535 0.20387843 0.03957925 0.14223512 0.17852287 0.091830164
0.280481 0.07098737 0.18281518 0.14832917 -0.0521955 0.06800926 0.09663323 0.14488792
-0.0079133 0.10555545 0.060259283 0.06664148 0.12097846 0.07458791 0.2977536 0.14116916
0.20493272 0.017673103 0.16767195 0.1298913 -0.08527994 0.13193756 0.10810369 0.023032475
-0.07596501 0.092620976 0.07942162 0.018206256 -0.02925052 0.11547733 0.14751343 0.30249745
0.1464613 0.16680078 0.0874121 0.101274334 -0.014221016 -0.022843104 0.09002834 0.019029608
0.033652194 0.048517633 -0.0863349 0.28987238 0.15195541 0.16387948 0.20983781 0.14366809
00000000: 4c23 ac3c 85b2 dd3d 7480 4d3d 3db8 953e
00000010: 74c3 a03d 3a41 1f3e d330 0a3e f9a3 193d
00000020: 2847 f23d 8711 3c3e 3763 1e3e 82c5 503e
00000030: da1d 223d 15a6 113e b3ce 363e 7411 bc3d
00000040: 359b 8f3e d461 913d e733 3b3e 9ae3 173e
00000050: f3ca 55bd 7048 8b3d a5e7 c53d 805d 143e
00000060: c9a6 01bc 752d d83d 70d2 763d 547b 883d
00000070: 8ec3 f73d 8cc1 983d 2973 983e a68e 103e
00000080: e2d9 513e 2fc7 903c 32b2 2b3e 3a02 053e
00000090: 40a7 aebd a41a 073e 7865 dd3d 9aae bc3c
000000a0: 8b93 9bbd 11b0 bd3d cda7 a23d 4925 953c
000000b0: c99e efbc 617f ec3d c30d 173e f2e0 9a3e
000000c0: f3f9 153e d3cd 2a3e 1d05 b33d eb68 cf3d
000000d0: 44ff 68bc 7621 bbbc c760 b83d fbe3 9b3c
000000e0: e2d6 093d 6dba 463d 5ad0 b0bd 276a 943e
000000f0: 339a 1b3e 06d0 273e b9df 563e ba1d 133e

func.net.4.weight f4 [2, 64]
-0.026405543 -0.2842036 -0.12193335 -0.060120825 0.052286062 0.27250317 0.23083822 0.054762464
0.34200087 0.2580751 -0.38612157 -0.39346015 0.07410386 0.081310384 0.07536555 -0.15342246
0.013127259 0.0024379424 0.25867414 0.028015366 0.27593598 0.22607674 -0.22990532 0.20947854
-0.35771 0.064247765 0.030525457 0.19538863 0.097531855 0.19766359 -0.09577157 0.322802
0.050043248 -0.43613732 0.13017654 -0.46185976 0.07101653 0.19744658 0.052140106 0.115874864
0.013315078 -0.06373196 0.012562913 0.35859278 -0.16131513 -0.32226828 -0.38125718 -0.05631255
0.38021263 -0.13861956 0.017179811 -0.12211566 0.124724455 -0.094505765 0.0090780165 -0.21236391
0.03577943 0.18643071 0.17948428 -0.10544683 -0.36678204 0.100343 -0.011587178 0.34169307
0.1918919 0.19801956 0.24348083 -0.3811621 0.17635038 0.14497186 0.21671276 -0.25341934
-0.09318589 -0.09501009 0.0429153 -0.07241227 -0.22012244 0.24731326 0.15917014 -0.17483413
-0.2797551 -0.2559382 -0.07763844 -0.15980472 0.094939925 0.21907184 -0.26032484 -0.081205636
0.058391705 -0.14616476 -0.15971513 0.13961275 -0.33629072 0.17585956 -0.23543195 0.08639303
-0.19123694 -0.048163097 -0.18408929 -0.13077152 0.14915282 0.012433847 -0.35165176 -0.31264645
0.18119258 0.21900037 -0.21407847 -0.019426696 0.27547792 0.077176936 0.03697507 -0.16324963
0.01656464 -0.28243625 0.24458267 0.29478538 0.18172164 0.26277322 -0.19315484 0.21857718
-0.22664547 0.012769948 0.053109135 -0.30049783 -0.024884082 -0.14876209 -0.3023726 -0.08985444
00000000: 7050 d8bc 2283 91be 31b8 f9bd 4141 76bd
00000010: e929 563d 8985 8b3e db60 6c3e 9b4e 603d
00000020: bd1a af3e 6b22 843e bab1 c5be 9c73 c9be
00000030: c4c3 973d 0f86 a63d 4159 9a3d c71a 1dbe
00000040: b713 573c e3c5 1f3b f070 843e 7b80 e53c
00000050: 7b47 8d3e a980 673e 4d6c 6bbe 8b81 563e
00000060: c425 b7be 5594 833d 8610 fa3c f513 483e
00000070: c8be c73d 5368 4a3e e323 c4bd 4e46 a53e
00000080: 26fa 4c3d 644d dfbe 004d 053e e278 ecbe
00000090: 1d71 913d 702f 4a3e dd90 553d cd4f ed3d
000000a0: 7c27 5a3c e785 82bd add4 4d3c 7999 b73e
000000b0: cb2f 25be 5900 a5be 2434 c3be fda7 66bd
000000c0: 3bab c23e 49f2 0dbe adbc 8c3c c617 fabd
000000d0: 896f ff3d 3d8c c1bd f6bb 143c ed75 59be
000000e0: 748d 123d b1e7 3e3e baca 373e 82f4 d7bd
000000f0: dbca bbbe a180 cd3d 26d8 3dbc 65f2 ae3e
00000100: 4f7f 443e a4c5 4a3e 0a53 793e ae27 c3be
00000110: 3295 343e 8173 143e f3e9 5d3e 2ec0 81be
00000120: 3ed8 bebd a694 c2bd f4c7 2f3d e24c 94bd
00000130: c767 61be b03f 7d3e 7ffd 223e b807 33be
00000140: 0f3c 8fbe 550a 83be e700 9fbd d9a3 23be
00000150: dd6f c23d 5e54 603e 4c49 85be 244f a6bd
00000160: 242c 6f3d 37ac 15be 5d8c 23be a5f6 0e3e
00000170: 4c2e acbe 8714 343e 1315 71be d4ee b03d
00000180: 9ed3 43be ab46 45bd e781 3cbe f8e8 05be
00000190: 84bb 183e 56b7 4b3c b30b b4be 3213 a0be
000001a0: 8c8a 393e a241 603e 6337 5bbe bc24 9fbc
000001b0: 710b 8d3e f10e 9e3d 2c73 173d e92a 27be
000001c0: 91b2 873c 7c9b 90be e173 7a3e 1cee 963e
000001d0: 3d15 3a3e 368a 863e 62ca 45be b2d2 5f3e
000001e0: c015 68be 0b39 513c f788 593d dada 99be
000001f0: b4d9 cbbc 1755 18be 95d0 9abe 9b05 b8bd

func.net.4.bias f4 [2]
-0.03435812 -0.050776523
00000000: 1abb 0cbd 0bfb 4fbd
